model.tflite (tflite, 312828 bytes, 16 tensors)

sequential_3/conv1d_10/BiasAdd/ReadVariableOp/resource f4 [64]
0.0031927875 -0.04194554 0.063069105 0.047597438 0.05740362 0.0149994455 -0.0061253165 0.07903552
0.038672745 -0.028412495 0.036716554 0.059403263 0.07074379 0.044076193 0.09528934 -0.031335335
0.051682197 -0.02134229 0.11258713 0.08361881 -0.024485197 0.14645238 0.10549783 0.03216729
-0.032684445 -0.123302475 0.06043126 0.0725789 -0.041851215 0.09411266 -0.047024027 -0.17588095
-0.003306538 0.059621047 -0.046649046 0.07868763 -0.09455143 -0.13052154 -0.069215275 -0.028189018
0.032593366 -0.042611986 0.008372653 0.04647748 0.008651035 0.0036912267 -0.069768846 0.07289648
-0.031187803 0.036053844 0.04866752 -0.0151050575 0.05736576 -0.061357412 -0.006073844 -0.11968489
0.19198121 0.10515534 -0.013039597 0.089478016 0.026392572 -0.040129475 0.05420099 0.013698573
00000000: 163e 513b 16cf 2bbd 602a 813d 88f5 423d
00000010: 0f20 6b3d 3cc0 753c e1b6 c8bb 60dd a13d
00000020: 5067 1e3d 52c1 e8bc 1964 163d d650 733d
00000030: 1fe2 903d 3d89 343d 0f27 c33d 7b59 00bd
00000040: b6b0 533d 07d6 aebc 1594 e63d 5740 ab3d
00000050: 2e95 c8bc 9df7 153e 3f0f d83d d9c1 033d
00000060: 20e0 05bd 0286 fcbd c586 773d 3fa4 943d
00000070: 2e6c 2bbd 23be c03d 449c 40bd 231a 34be
00000080: 81b2 58bb 3335 743d 1213 3fbd fb26 a13d
00000090: 2ea4 c1bd 70a7 05be bdc0 8dbd a8ec e6bc
000000a0: 9f80 053d e889 2ebd 742d 093c 2c5f 3e3d
000000b0: 12bd 0d3c 82e8 713b f8e2 8ebd c04a 953d
000000c0: 907d ffbc 32ad 133d 9857 473d 347b 77bc
000000d0: 5cf8 6a3d e951 7bbd 1907 c7bb 5a1d f5bd
000000e0: b996 443e af5b d73d 09a4 55bc 4040 b73d
000000f0: 3c35 d83c ce5e 24bd db01 5e3d fb6f 603c

sequential_3/conv1d_11/BiasAdd/ReadVariableOp/resource f4 [128]
0.01686845 0.020699168 0.0035256324 0.07010995 0.009523359 0.011567703 -0.00323584 0.010530784
0.042893894 0.13468745 0.012565824 -0.016706822 0.046974294 -0.021838453 0.108530276 0.0051426305
0.009679375 0.047635987 -0.012454114 0.0039770654 0.054265693 -0.00096259406 0.09172062 0.040448964
-0.018659128 0.027759472 -0.028383337 -0.018759394 0.022176119 0.004929687 0.011668568 0.07273707
0.0026949476 0.09079742 -0.027795382 0.062358193 0.024474114 -0.015938923 0.044024345 0.015631309
0.032204885 0.04075465 0.009359692 0.012766291 -0.012388811 0.10886704 0.06518773 -0.04757554
0.021224445 0.041144717 0.012439003 0.023920622 0.051809642 0.033446543 0.024897454 0.0175865
0.0022164925 0.042722356 0.14275637 0.015932322 -0.035754066 -0.021900775 0.021333497 -0.000313024
0.007103266 -0.01361638 0.025071213 -0.014691563 0.05268906 0.08515011 0.024872504 -0.004041101
-0.01783443 0.000423613 0.04600897 -0.004815943 0.0314701 0.0055212 0.07586774 0.12707256
0.014115483 -0.01450277 -0.016998803 0.016619131 -0.027853958 0.08493685 0.031498592 0.025702301
0.053367358 0.0020914052 0.0064589493 -0.013610626 0.030679125 0.0050050183 0.01634348 0.03970542
0.08854051 0.01915169 0.021859715 -0.010551836 0.006307728 0.12889378 0.04778079 0.080726564
0.023069395 0.032052517 0.05664405 0.0056007076 -0.03154868 0.08404104 0.0027860694 0.06375318
0.05785579 0.011063011 0.051379822 0.13981092 -0.00059336075 0.055978745 0.0572287 0.0096760215
0.059664346 0.05331373 0.08688893 0.032260355 -0.014742114 -0.0033153365 0.015249626 0.0131595135
00000000: b42f 8a3c 4d91 a93c 4c0e 673b ce95 8f3d
00000010: dd07 1c3c 7786 3d3c 6310 54bb 4f89 2c3c
00000020: 82b1 2f3d 82eb 093e e3e0 4d3c bfdc 88bc
00000030: 1e68 403d 8ee6 b2bc 1f45 de3d 8383 a83b
00000040: 3e96 1e3c f41d 433d 570c 4cbc 0b52 823b
00000050: b445 5e3d 9856 7cba 05d8 bb3d d0ad 253d
00000060: 07db 98bc d567 e33c 2c84 e8bc 4dad 99bc
00000070: b1aa b53c 3689 a13b 852d 3f3c 2cf7 943d
00000080: b89d 303b fff3 b93d 24b3 e3bc 4e6b 7f3d
00000090: f07d c83c 5892 82bc df52 343d 3b0d 803c
000000a0: 45e9 033d 59ee 263d 6559 193c b529 513c
000000b0: 71fa 4abc aff5 de3d 2581 853d 92de 42bd
000000c0: e3de ad3c 5d87 283d f6cc 4b3c 2ef5 c33c
000000d0: 5936 543d 3eff 083d bff5 cb3c 9011 903c
000000e0: 9342 113b a3fd 2e3d ba2e 123e 8084 823c
000000f0: db72 12bd 4169 b3bc 96c3 ae3c 5f1d a4b9
00000100: 84c2 e83b 3d17 5fbc 2562 cd3c e2b4 70bc
00000110: 7cd0 573d 2e63 ae3d 6cc1 cb3c 366b 84bb
00000120: 8319 92bc 6018 de39 e773 3c3d 0fcf 9dbb
00000130: cbe6 003d 2feb b43b 8c60 9b3d 4f1f 023e
00000140: a044 673c 079d 6dbc 1341 8bbc d824 883c
00000150: fc2d e4bc 5ff3 ad3d ab04 013d a28d d23c
00000160: bb97 5a3d f50f 093b 98a5 d33b 1aff 5ebc
00000170: ca52 fb3c 2301 a43b c3e2 853c 27a2 223d
00000180: ba54 b53d 01e4 9c3c 2513 b33c 9ce1 2cbc
00000190: 0fb1 ce3b bbfc 033e cab5 433d f853 a53d
000001a0: 07fc bc3c 8049 033d 9703 683d 2486 b73b
000001b0: 3039 01bd b51d ac3d 7d96 363b 0791 823d
000001c0: 31fa 6c3d a241 353c a673 523d 982a 0f3e
000001d0: c48b 1bba f849 653d a468 6a3d 2d88 1e3c
000001e0: 9a62 743d 7f5f 5a3d d3f2 b13d 6f23 043d
000001f0: e888 71bc 1e46 59bb 91d9 793c 009b 573c

sequential_3/conv1d_8/BiasAdd/ReadVariableOp/resource f4 [16]
-0.6058095 -0.10090509 -0.14199363 -0.1050439 -0.09246558 0.13564453 -0.18351667 0.06797266
0.057793047 -0.04033635 -0.15901694 0.051070306 0.370184 0.0824069 -0.12104522 -0.13333641
00000000: 5516 1bbf 54a7 cebd c766 11be 4221 d7bd
00000010: 985e bdbd 66e6 0a3e cbeb 3bbe 4035 8b3d
00000020: 67b8 6c3d bb37 25bd 56d5 22be 192f 513d
00000030: c288 bd3e f3c4 a83d 8ee6 f7bd 5789 08be

sequential_3/conv1d_9/BiasAdd/ReadVariableOp/resource f4 [32]
0.09382642 0.091343835 0.10804798 0.3289657 0.02010622 0.4722248 0.5109781 -0.12147221
-0.028822439 0.11138111 0.17921926 0.03629106 0.07147855 0.09582917 0.10611596 0.14743206
0.13584355 0.18372282 0.047946934 0.005735948 0.107937515 0.02950482 0.19907662 0.033788424
0.17711315 0.15823574 -0.00970617 -0.065075114 0.12420955 0.041759606 0.029646467 0.11382443
00000000: 1128 c03d 7a12 bb3d 4248 dd3d 316e a83e
00000010: cdb5 a43c 73c7 f13e 76cf 023f 6cc6 f8bd
00000020: 091d ecbc c81b e43d 4185 373e efa5 143d
00000030: 5963 923d 1542 c43d 5353 d93d 6ef8 163e
00000040: 921a 0b3e d621 3c3e 0164 443d 9ff4 bb3b
00000050: 580e dd3d 18b4 f13c beda 4b3e bb65 0a3d
00000060: 265d 353e 8d08 223e a106 1fbc 1a46 85bd
00000070: 9461 fe3d 1f0c 2b3d 26dd f23c c81c e93d

sequential_3/dense_4/BiasAdd/ReadVariableOp/resource f4 [100]
0.01796555 0.11254881 0.1138804 0.032420408 -0.02881841 0.0275817 0.02869232 0.03636762
-0.014871954 -0.021562306 -0.029938435 -0.04998257 0.02400862 0.00834467 0.021533899 -0.015263772
-0.014932263 -0.039529014 -0.025735134 0.033371456 -0.049316287 0.046389908 0.11117963 0.079905555
0.0015323992 0.11403029 -0.01743881 0.03555997 0.04661543 0.04769018 0.05350322 0.02864153
0.030199109 -0.021129075 -0.004302305 0.04255212 0.07707691 0.00026978337 0.04523542 0.06145012
-0.019903375 0.089878835 -0.019389687 0.027352711 0.06393126 -0.0376953 0.024695698 0.028583476
-0.02977962 -0.019709421 0.040679853 0.038639214 -0.0046023224 0.025995705 -0.027480545 0.019781712
-0.0042978944 8.703629e-05 0.053860843 -0.00041617276 0.035570003 0.06850714 0.03540654 0.087847285
0.030361956 0.08435441 0.06583865 0.019007515 0.004654393 0.059554175 0.03120158 0.087488905
0.0048115784 0.08272113 0.11321119 0.04402231 -0.008203716 0.074724056 0.018710267 0.032299425
-0.0019291048 -0.013870559 -0.0143434275 0.03970505 -0.007891427 0.016594123 0.12204994 0.029841546
-0.055082902 0.023056617 0.030036308 0.06950775 0.004186075 0.038572732 -0.00023330469 0.04016099
0.12968612 -0.0012016163 0.052812163 0.027616493
00000000: 7d2c 933c fe7f e63d 213a e93d 43cb 043d
00000010: 9614 ecbc 04f3 e13c 280c eb3c 37f6 143d
00000020: 7fa9 73bc 6fa3 b0bc 7341 f5bc 86ba 4cbd
00000030: baad c43c 15b8 083c dc67 b03c e614 7abc
00000040: 73a6 74bc 2de9 21bd 7dd2 d2bc 82b0 083d
00000050: e0ff 49bd 5803 3e3d 25b2 e33d 86a5 a33d
00000060: c9da c83a b688 e93d d6db 8ebc 55a7 113d
00000070: d2ef 3e3d c756 433d 3126 5b3d a4a1 ea3c
00000080: 1f64 f73c e216 adbc 5afa 8cbb 224b 2e3d
00000090: 80da 9d3d b671 8d39 c748 393d 1fb3 7b3d
000000a0: 670c a3bc 6512 b83d 1fd7 9ebc cb12 e03c
000000b0: 64ee 823d 6366 1abd a24e ca3c e527 ea3c
000000c0: 64f4 f3bc a775 a1bc eb9f 263d 2744 1e3d
000000d0: 14cf 96bb f2f4 d43c e11e e1bc 420d a23c
000000e0: 5ad5 8cbb 4187 b638 309d 5c3d c331 dab9
000000f0: dab1 113d 794d 8c3d 7306 113d 47e9 b33d
00000100: a3b9 f83c 01c2 ac3d 6ad6 863d a6b5 9b3c
00000110: e183 983b 14ef 733d 759a ff3c 622d b33d
00000120: 72aa 9d3b b269 a93d 45db e73d bd50 343d
00000130: e168 06bc ed08 993d 4646 993c 674c 043d
00000140: 04da fcba 5741 63bc b200 6bbc c3a1 223d
00000150: 0b4b 01bc 66f0 873c 52f5 f93d 4276 f43c
00000160: 9c9e 61bd 3be1 bc3c b40e f63c 145a 8e3d
00000170: 582b 893b 71fe 1d3d 40a3 74b9 da7f 243d
00000180: 70cc 043e 8d7f 9dba 9151 583d fc3b e23c

sequential_3/dense_5/BiasAdd/ReadVariableOp/resource f4 [18]
-0.15957555 -0.21347809 -0.10893259 -0.14357679 -0.13727249 -0.16021772 -0.18241563 -0.11273711
-0.10403739 -0.12945259 -0.15307912 -0.17025188 -0.13366057 -0.07513846 -0.116810605 -0.14897078
-0.112152435 -0.14958228
00000000: c667 23be 009a 5abe 0d18 dfbd cb05 13be
00000010: 2991 0cbe 1d10 24be 2acb 3abe b7e2 e6bd
00000020: 8e11 d5bd 388f 04be c6c0 1cbe 8256 2ebe
00000030: 51de 08be 31e2 99bd 663a efbd cc8b 18be
00000040: 2db0 e5bd 192c 19be

sequential_3/batch_normalization_4/batchnorm/mul f4 [32]
0.13491052 0.36937523 0.13710812 16.355188 0.19575626 0.95901155 7.5551224 0.3973284
0.13318159 0.12059715 0.47508556 0.11516043 0.1281959 0.23866843 0.17484063 0.24454258
0.1580434 8.616595 0.45157313 0.110289365 0.18581596 0.21396036 0.2212679 0.12084961
0.260902 0.26427743 0.22352432 11.397651 0.18710087 0.16266343 0.20549382 0.22171153
00000000: fc25 0a3e c01e bd3e 1266 0c3e 6dd7 8241
00000010: 5474 483e c881 753f 90c3 f140 a16e cb3e
00000020: c160 083e a3fb f63d 6a3e f33e 3bd9 eb3d
00000030: c945 033e 7f65 743e 6c09 333e 5f69 7a3e
00000040: 21d6 213e 93dd 0941 9834 e73e 64df e13d
00000050: 8a46 3e3e 6d18 5b3e 0d94 623e 0080 f73d
00000060: f294 853e 5f4f 873e 8fe3 643e c75c 3641
00000070: 5f97 3f3e 3e91 263e f96c 523e 5908 633e

sequential_3/batch_normalization_4/batchnorm/sub f4 [32]
-0.30471045 -0.2726506 -0.21765752 -0.3351535 -0.3459344 -0.21130876 -0.5146736 -0.1235992
-0.21046741 -0.4024616 -0.14639767 -0.4941257 -0.2483123 -0.29613072 -0.25723395 -0.3215106
-0.31652224 -0.44067895 -0.30314794 -0.4253088 -0.27152008 -0.34737214 -0.2515826 -0.35160878
-0.40475094 -0.16599722 -0.24451962 -0.24932727 -0.3846454 -0.32441664 -0.30163932 -0.28278393
00000000: 0203 9cbe dc98 8bbe 9de1 5ebe 3d99 abbe
00000010: 501e b1be 5361 58be a6c1 03bf 9421 fdbd
00000020: c584 57be 720f cebe 45e9 15be 0bfe fcbe
00000030: 9445 7ebe 729e 97be 2bb4 83be 0a9d a4be
00000040: 340f a2be aca0 e1be 3536 9bbe 13c2 d9be
00000050: ae04 8bbe c3da b1be 6fcf 80be 1106 b4be
00000060: 843b cfbe 2dfb 29be 5a63 7abe a64f 7fbe
00000070: 3ef0 c4be f019 a6be 7870 9abe 0ec9 90be

sequential_3/batch_normalization_5/batchnorm/mul f4 [128]
4.731058 13.064799 1.7318692 15.612954 2.0630114 14.353102 7.482171 5.217815
3.6162808 4.660296 23.818544 4.322437 4.2815433 2.7102334 3.3139954 2.6378348
2.135998 3.9757934 4.990356 6.025509 2.3901885 7.161619 7.0699515 2.9908283
31.58629 3.4563422 26.911188 31.531628 3.5549428 3.0950234 4.815703 2.6610842
0.93570757 5.420635 27.963661 4.1080503 2.5297074 2.8042116 2.132591 2.9574091
2.269675 2.7388878 1.3317666 1.1906894 31.342236 3.5210645 4.171569 15.78168
5.795709 3.6829994 2.2671485 2.9376247 1.8295497 1.6810931 3.185345 7.0684648
18.17414 2.4484189 5.6051397 2.6815033 9.215653 2.4647334 2.6895237 3.5962946
2.6861904 2.432713 2.8856533 2.3394692 3.1092312 4.783419 3.4139674 1.3322814
30.79137 4.66421 4.802907 3.5404813 5.53422 11.395639 2.5813773 4.349635
1.8905687 5.333734 9.514342 2.4360006 4.923283 3.030216 2.6593444 3.1065087
3.078568 2.1705446 3.06095 6.9594383 1.984728 3.71672 1.4073188 2.1550868
2.3395436 5.461001 4.542009 6.239328 2.0934894 5.274767 5.476362 5.8884225
2.2654698 1.442253 6.0703177 5.0355105 31.502779 5.4106216 8.179163 3.075603
4.640807 3.4061244 10.790613 4.278696 1.0577332 3.2951198 2.93744 3.0528727
4.34179 2.1161659 5.558272 2.5874908 8.385822 2.8749232 5.5733705 1.8884356
00000000: d464 9740 6b09 5141 e4ad dd3f a9ce 7941
00000010: 6108 0440 4ea6 6541 f26d ef40 57f8 a640
00000020: 2571 6740 2521 9540 618c be41 6751 8a40
00000030: 6702 8940 7774 2d40 8018 5440 49d2 2840
00000040: 31b4 0840 6673 7e40 ffb0 9f40 f8d0 c040
00000050: d9f8 1840 fc2b e540 0b3d e240 bb69 3f40
00000060: b9b0 fc41 b634 5d40 1d4a d741 c640 fc41
00000070: 2f84 6340 dd14 4640 3d1a 9a40 344f 2a40
00000080: 888a 6f3f d875 ad40 94b5 df41 2675 8340
00000090: bae6 2140 3478 3340 5f7c 0840 3146 3d40
000000a0: 5b42 1140 f049 2f40 5477 aa3f 8368 983f
000000b0: e6bc fa41 1f59 6140 7e7d 8540 c381 7c41
000000c0: 7376 b940 43b6 6b40 f618 1140 0b02 3c40
000000d0: af2e ea3f 0f2e d73f b1dc 4b40 dd30 e240
000000e0: a464 9141 e5b2 1c40 4e5d b340 c09d 2b40
000000f0: 5173 1341 31be 1d40 2821 2c40 b129 6640
00000100: 8bea 2b40 92b1 1b40 8bae 3840 ddb9 1540
00000110: a5fd 4640 c511 9940 717e 5a40 3288 aa3f
00000120: ba54 f641 3541 9540 6ab1 9940 3f97 6240
00000130: 5518 b140 8a54 3641 4935 2540 3630 8b40
00000140: 28fe f13f f3ad aa40 bf3a 1841 6fe7 1b40
00000150: 898b 9d40 0fef 4140 b332 2a40 0ad1 4640
00000160: 4207 4540 34ea 0a40 9be6 4340 b8b3 de40
00000170: 910b fe3f bede 6d40 0623 b43f f1ec 0940
00000180: 15bb 1540 85c0 ae40 2358 9140 93a8 c740
00000190: bbfb 0540 e4ca a840 5c3e af40 f56d bc40
000001a0: 75fd 1040 bf9b b83f 0b40 c240 e722 a140
000001b0: b105 fc41 d023 ad40 dadd 0241 aed6 4440
000001c0: 7e81 9440 f1fd 5940 5aa6 2c41 14eb 8840
000001d0: cd63 873f 3ee3 5240 04ff 3b40 4462 4340
000001e0: f2ef 8a40 436f 0740 5ddd b140 7399 2540
000001f0: 542c 0641 befe 3740 0d59 b240 42b8 f13f

sequential_3/batch_normalization_5/batchnorm/sub f4 [128]
-0.45784315 -0.1933096 -0.98506343 -0.06801668 -0.88785505 0.048586212 -0.8630815 -0.90090543
-0.667552 -0.5807934 -0.08223432 -1.0051054 -0.6521291 -0.54242647 -0.6583193 -0.7229226
-0.5841952 -0.67846334 -0.81576955 -0.8959547 -0.83198225 -0.66323686 -0.6029825 -1.2842696
0.029373545 -0.5815238 -0.03350297 -0.111175306 -0.650173 -0.7847911 -0.4860827 -1.1224151
-0.9950647 -0.6557394 -0.041260026 -1.1100395 -0.67770404 -0.6280149 -0.4225666 -0.97108716
-0.4769886 -0.67150277 -0.91714734 -0.87921655 0.054825645 -0.794989 -0.9250174 -0.1476585
-0.9784288 -1.2129654 -0.8825292 -0.55898905 -0.5178134 -0.818854 -1.4863818 -0.6276115
-0.30795932 -0.82845414 -0.6336539 -0.92590916 -0.44322228 -0.73684937 -0.4922559 -0.9940915
-1.0452605 -1.9984833 -0.6744049 -0.7323527 -0.7491256 -0.8692321 -1.0546888 -0.7904449
0.018220492 -0.60410446 -0.8775911 -0.37593368 -0.78775394 -0.30538148 -0.8713556 -0.9900973
-1.4729085 -0.9469244 -0.4190191 -1.0671697 -0.49248138 -1.0655214 -0.8098579 -0.63566536
-0.62060106 -0.75245196 -1.4939212 -0.8239614 -0.97116905 -0.8366579 -0.6310233 -0.7535391
-1.1266752 -0.7231989 -0.6927111 -0.6868051 -0.71161103 -0.7728804 -0.7271787 -0.6413014
-0.5936608 -0.7549976 -0.68674576 -0.71097726 -0.0011063002 -0.80760103 -0.20877707 -0.6061669
-0.66741353 -1.1655159 -0.30005112 -1.1640904 -0.91731113 -0.9486311 -0.69199187 -1.6041135
-0.74239576 -0.5036031 -0.71774244 -1.4611527 -0.4586168 -1.0540962 -0.5900147 -0.78840744
00000000: 6b6a eabe f4f2 45be 1e2d 7cbf 544c 8bbd
00000010: 784a 63bf 5602 473d e9f2 5cbf bda1 66bf
00000020: b0e4 2abf e0ae 14bf 786a a8bd 4ba7 80bf
00000030: eff1 26bf 76dc 0abf 9d87 28bf 7511 39bf
00000040: d18d 15bf c6af 2dbf 46d6 50bf 4a5d 65bf
00000050: cafc 54bf e4c9 29bf 105d 1abf f262 a4bf
00000060: caa0 f03c bede 14bf 693a 09bd e1af e3bd
00000070: bd71 26bf 12e8 48bf d5df f8be 4cab 8fbf
00000080: 8fbc 7ebf 8ade 27bf 4600 29bd c615 8ebf
00000090: 037e 2dbf 96c5 20bf a65a d8be 2b99 78bf
000000a0: da37 f4be 9be7 2bbf 2bca 6abf 5614 61bf
000000b0: db90 603d 6684 4bbf f1cd 6cbf ca33 17be
000000c0: 4f7a 7abf 7342 9bbf 6fed 61bf e819 0fbf
000000d0: 6b8f 04bf 6aa0 51bf c241 bebf 26ab 20bf
000000e0: d8ac 9dbe 9215 54bf 2437 22bf 6208 6dbf
000000f0: 08ee e2be 29a2 3cbf f708 fcbe c87c 7ebf
00000100: 19cb 85bf 4dce ffbf cda5 2cbf 777b 3bbf
00000110: b2c6 3fbf ff85 5ebf 0b00 87bf 995a 4abf
00000120: 2443 953c 97a6 1abf cfa9 60bf 617a c0be
00000130: 3eaa 49bf f65a 9cbe 2911 5fbf 0477 7dbf
00000140: 4488 bcbf a369 72bf ac89 d6be 0499 88bf
00000150: 8526 fcbe 0163 88bf d952 4fbf f7ba 22bf
00000160: b6df 1ebf b1a0 40bf cf38 bfbf 22ef 52bf
00000170: 899e 78bf 362f 56bf be8a 21bf f0e7 40bf
00000180: e536 90bf 9023 39bf 8455 31bf 76d2 2fbf
00000190: 242c 36bf 7ddb 45bf 6228 3abf 542c 24bf
000001a0: 27fa 17bf 8647 41bf 92ce 2fbf 9b02 36bf
000001b0: 4601 91ba f1be 4ebf a8c9 55be c12d 1bbf
000001c0: 9ddb 2abf a02f 95bf 4da0 99be ea00 95bf
000001d0: e7d4 6abf 7dd9 72bf 6126 31bf 9753 cdbf
000001e0: a60d 3ebf 22ec 00bf f8bd 37bf 0d07 bbbf
000001f0: d2cf eabe a0ec 86bf 340b 17bf 12d5 49bf

sequential_3/dense_4/MatMul f4 [100, 512]
-0.043361943 0.073879376 0.051957726 0.13403697 0.03631565 0.015981177 0.053526398 -0.105545536
-0.07783331 0.13586067 -0.08449447 -0.00833593 -0.09535389 0.038569905 -0.07525208 0.0747936
0.013569286 0.080560945 0.08635138 0.058881357 0.06738972 0.014038353 -0.04842587 -0.04924027
-0.07315269 -0.019674225 -0.05372526 -0.06760841 0.018679991 -0.056308094 0.013622325 -0.11039767
0.055897783 -0.04494211 -0.007087226 -0.05760943 0.056294624 0.047490474 0.07411175 -0.100811504
-0.0044337926 -0.09233865 -0.05322735 0.046087958 -0.009406426 0.026494978 -0.017891502 -0.014524037
-0.0061539905 -0.05893328 -0.043461166 -0.0043663085 0.09103786 0.034881093 0.01932636 -0.054870818
-0.0024007238 -0.086824425 0.006325452 -0.039004575 -0.012935402 -0.11812262 -0.015051346 0.059910137
-0.06884033 -0.05999505 0.018657707 -0.10620958 -0.11193393 -0.078554794 -0.016449489 0.0066037974
-0.009228651 -0.0116673885 0.047299918 -0.11163041 -0.026167337 -0.052570444 -0.06569009 -0.014688281
-0.020839544 0.011469739 0.02170264 0.040249508 -0.069606796 -0.14433555 0.046373844 0.06803557
0.015855797 -0.002847964 -0.13370226 0.059230473 -0.06315185 -0.110022545 0.04271468 0.01426511
-0.065958776 -0.0712176 -0.06851243 0.020394094 -0.08705759 0.08945431 -0.0528331 0.06079283
-0.029648198 0.0048151175 -0.018646289 -0.036582213 0.031242121 0.11155279 -0.05615023 -0.035136446
-0.039756514 0.043972194 -0.0560194 -0.038886305 -0.09247399 -0.006323889 0.004495 -0.024736118
-0.04048123 -0.08355156 0.060958453 -0.13256894 0.009886493 0.026172137 0.06328164 -0.09676757
0.08668307 0.019903027 0.076594435 -0.0101356935 -0.056078855 0.04814279 0.10385668 -0.054811545
-0.07897749 0.06920587 0.06677624 -0.043692708 0.028132023 -0.0581375 0.01650615 0.076367214
-0.08805329 -0.022962349 0.060781877 0.06268741 0.018673727 0.14043194 0.07839339 0.026016403
0.054318137 0.009610696 0.052352093 -0.093273185 0.060279395 0.022878375 0.09452977 0.0034266296
0.037104163 0.07981445 -0.052223794 -0.058570053 -0.1007933 0.078703776 -0.034460746 -0.014854742
0.023917504 -0.11332001 0.056232437 -0.10137838 -0.08053611 0.02087957 0.04691125 0.03931563
0.11644049 0.020461949 -0.026185753 0.005729219 0.047824074 0.040699866 -0.06135451 0.047266103
-0.007951268 -0.071808845 -0.002573737 -0.080971114 0.062351216 -0.06015182 0.042509474 -0.060274906
0.026110165 -0.041717373 -0.12439605 0.048797864 -0.02047972 -0.07591238 0.038229078 0.04185815
0.02459085 -0.113344796 0.13777706 -0.07089025 -0.063641265 -0.056389477 0.08507673 -0.023391295
0.018921813 0.037018195 0.08388977 0.08251796 0.006647551 -0.10263292 0.033958253 0.09971085
-0.06852041 0.026815897 -0.05256933 0.03572488 -0.06669497 -0.106627166 0.038302906 0.044572286
-0.08417658 0.06341028 0.032663114 0.09017621 0.06419792 -0.048232045 0.0855031 0.07329156
0.037709422 -0.08128409 -0.0021405686 0.01533799 -0.049341273 0.033733282 0.00655414 -0.056235164
0.038856387 -0.05290032 0.0014850675 0.07502432 0.06268442 -0.09844913 0.08196036 -0.03422119
-0.06325476 -0.021597546 0.0924197 -0.07104931 -0.031232016 0.059336208 0.03258155 0.08369988
00000000: 4b9c 31bd 124e 973d a0d1 543d fd40 093e
00000010: b8bf 143d f5ea 823c 7f3e 5b3d 4228 d8bd
00000020: 1267 9fbd 0f1f 0b3e 700b adbd 6d93 08bc
00000030: e648 c3bd 7afb 1d3d c31d 9abd 632d 993d
00000040: b651 5e3c 23fd a43d fed8 b03d 942d 713d
00000050: 9f03 8a3d 1f01 663c 345a 46bd 2ab0 49bd
00000060: 14d1 95bd d72b a1bc 050f 5cbd 4776 8abd
00000070: c806 993c 51a3 66bd 2c30 5f3c 2c18 e2bd
00000080: 13f5 643d 3815 38bd f63b e8bb def7 6bbd
00000090: 3195 663d 5f85 423d e7c7 973d 4376 cebd
000000a0: 5949 91bb 0c1c bdbd ec04 5abd bac6 3c3d
000000b0: 691d 1abc ff0b d93c 3391 92bc 3af6 6dbc
000000c0: 6aa7 c9bb 0664 71bd 5604 32bd 4013 8fbb
000000d0: 0f72 ba3d 7adf 0e3d 5152 9e3c 39c0 60bd
000000e0: 7655 1dbb 01d1 b1bd bd45 cf3b 43c3 1fbd
000000f0: 02ef 53bc 46ea f1bd ec99 76bc 5564 753d
00000100: 29fc 8cbd 5fbd 75bd 0cd8 983c 6984 d9bd
00000110: 9e3d e5bd 56e1 a0bd 14c1 86bc ab64 d83b
00000120: c533 17bc 9328 3fbc 8fbd 413d 7c9e e4bd
00000130: e25c d6bc 1b54 57bd 8788 86bd 1ea7 70bc
00000140: b1b7 aabc 92eb 3b3c bcc9 b13c abdc 243d
00000150: 028e 8ebd b3cc 13be 80f2 3d3d 3c56 8b3d
00000160: 04e4 813c e8a4 3abb 3fe9 08be a79b 723d
00000170: c255 81bd 8053 e1bd 97f5 2e3d 35b8 693c
00000180: 6515 87bd 88da 91bd 3f50 8cbd 8411 a73c
00000190: 404b b2bd d233 b73d 8567 58bd e701 793d
000001a0: c7e0 f2bc 22c8 9d3b 1ac0 98bc 3bd7 15bd
000001b0: 7aef ff3c ca75 e43d c9fd 65bd 3ceb 0fbd
000001c0: bad7 22bd 301c 343d 9974 65bd 3f47 1fbd
000001d0: 0163 bdbd a038 cfbb cb4a 933b 66a3 cabc
000001e0: a5cf 25bd 151d abbd 92af 793d 27c0 07be
000001f0: f5fa 213c f366 d63c ce99 813d 132e c6bd
00000200: e586 b13d ac0b a33c 8bdd 9c3d 2e10 26bc
00000210: f1b2 65bd 6031 453d d0b2 d43d 1282 60bd
00000220: f3be a1bd cfbb 8d3d fbc1 883d 20f7 32bd
00000230: 2175 e63c 9621 6ebd e837 873c 6a66 9c3d
00000240: 4955 b4bd 891b bcbc 6bf6 783d 4262 803d
00000250: a5f9 983c 64cd 0f3e b78c a03d 5a20 d53c
00000260: b27c 5e3d 2e76 1d3c 266f 563d 0306 bfbd
00000270: 87e7 763d 6e6b bb3c d398 c13d 4e91 603b
00000280: 89fa 173d c275 a33d 9ee8 55bd 27e7 6fbd
00000290: b86c cebd 722f a13d b626 0dbd 4e61 73bc
000002a0: a4ee c33c 5214 e8bd fc53 663d 789f cfbd
000002b0: 1ef0 a4bd a20b ab3c 0326 403d 6d09 213d
000002c0: 5a78 ee3d d19f a73c 8183 d6bc 2cbc bb3b
000002d0: 2de3 433d e7b4 263d de4e 7bbd 1a9a 413d
000002e0: 0946 02bc 8410 93bd 24ac 28bb 2fd4 a5bd
000002f0: fd63 7f3d c161 76bd 6a1e 2e3d d2e2 76bd
00000300: fce4 d53c d6df 2abd 5bc3 febd 45e0 473d
00000310: 16c5 a7bc f377 9bbd 1896 1c3d 7473 2b3d
00000320: c072 c93c 5121 e8bd 6e15 0d3e e82e 91bd
00000330: 5a56 82bd a7f8 66bd b53c ae3d 1a9f bfbc
00000340: eb01 9b3c 64a0 173d 66ce ab3d 2dff a83d
00000350: b3d3 d93b 3531 d2bd cf17 0b3d 3435 cc3d
00000360: 6e54 8cbd 03ad db3c f052 57bd 4054 123d
00000370: 5f97 88bd 585f dabd 82e3 1c3d 6e91 363d
00000380: c564 acbd 40dd 813d c2c9 053d 4eae b83d
00000390: 337a 833d f78e 45bd 401c af3d e319 963d
000003a0: 3275 1a3d 4678 a6bd c848 0cbb 314c 7b3c
000003b0: 131a 4abd e92b 0a3d 1cc4 d63b d856 66bd
000003c0: e027 1f3d 02ae 58bd 99a6 c23a 5aa6 993d
000003d0: b060 803d b39f c9bd d5da a73d 852b 0cbd
000003e0: b68b 81bd 56ed b0bc 8a46 bd3d 4d82 91bd
000003f0: 49da ffbc 860a 733d 3b74 053d d86a ab3d

sequential_3/dense_5/MatMul f4 [18, 100]
-0.21830961 -0.30704936 0.11111724 0.25143307 0.011562282 -0.076384 0.16448513 -0.20793986
0.25929627 0.14491512 -0.2013199 -0.23594326 0.11331866 0.23037514 0.001712698 -0.17309582
0.011657887 0.13921046 0.017134648 -0.009226315 0.12909251 0.17983972 -0.00333814 -0.29184183
0.22232419 -0.16848266 0.17419028 -0.03598138 -0.16177715 -0.14580461 0.07761197 -0.1990246
0.06056186 -0.15780821 -0.02825539 -0.08060452 -0.20477462 -0.3107887 -0.29847336 -0.16489623
-0.034536425 -0.20480981 0.2892842 -0.19312815 -0.049290903 -0.11100209 -0.004705689 -0.24794172
-0.16524571 0.15689765 -0.15705816 -0.17044869 -0.012436365 0.34553823 -0.120053306 -0.0337787
-0.29227048 -0.37762186 -0.3368586 -0.11577489 -0.31103262 -0.103216894 -0.04066914 -0.28746396
0.24828316 -0.2224513 -0.20479284 -0.00485483 0.14349782 0.10411058 -0.115830466 -0.3860195
-0.18771072 -0.22870642 -0.38159457 0.147821 -0.19639371 -0.017490136 -0.26416457 0.06618244
0.21717204 -0.37548578 -0.041174497 -0.09185962 -0.24998686 -0.19327392 -0.06540355 -0.2759008
-0.079026364 0.24932492 -0.029634004 -0.2127915 -0.0019828395 0.20448525 -0.2732884 0.0053853355
-0.036806 0.070331 0.11354082 0.025219068 -0.01756528 -0.30272284 0.018386139 0.015935788
0.13465881 0.122168854 -0.12422417 -0.005986788 0.10291739 -0.18228269 0.10070002 0.128679
-0.44065517 0.17135699 -0.27916363 0.00626841 0.07255403 0.08899067 0.22133373 0.004345478
-0.07316007 -0.07596392 -0.16832139 -0.515892 0.19466853 -0.28578517 0.10516159 -0.34310308
-0.1357456 -0.35315657 0.24162321 -0.03497416 0.081804425 0.05972837 0.03226268 0.08354805
-0.18491551 -0.16336238 -0.13249129 -0.05064419 -0.35052696 -0.37439 0.078712605 0.1801978
0.07752186 -0.18879868 0.05946968 0.09359094 -0.10693199 0.11498396 0.091687426 -0.116618805
0.035836402 -0.33146995 -0.19042769 -0.18375184 -0.17720145 0.2589767 -0.20199846 -0.15157637
-0.32248837 -0.35108858 -0.1578312 -0.15280788 -0.2765434 0.06059122 -0.21854596 -0.16304544
-0.1131479 0.046492144 0.108443975 0.40808633 -0.0020074854 -0.1713214 -0.37454367 -0.21633081
-0.29088685 -0.11209986 -0.15549809 -0.082992196 -0.07447732 -0.06112152 0.08355698 -0.1454773
-0.08461266 0.17316106 0.059677612 -0.14135508 -0.16995096 -0.21233124 -0.023154126 -0.20046772
0.11955893 0.15682566 -0.055871613 -0.21705559 -0.1292426 0.14372626 -0.2855108 -0.04563748
0.16472723 -0.2856137 0.12266127 -0.20442857 -0.15059455 0.19283631 -0.021452084 -0.14225754
0.08046649 -0.01159886 0.147167 0.039817158 0.004716356 -0.10673547 -0.123569444 -0.29097655
-0.05143125 0.11726432 0.11511117 0.013514353 -0.31709242 -0.13561504 0.047952615 0.1140943
-0.07973461 0.16597256 -0.058660638 -0.29788563 -0.111124374 -0.18189736 -0.22728081 -0.16873077
-0.1375169 0.061975915 0.029842995 -0.05412314 -0.18210973 -0.20084392 0.111622036 0.12753665
-0.16151942 -0.03477379 -0.11082093 0.009010926 0.066934235 0.16925105 -0.2347551 -0.41518515
0.105277844 -0.025275145 -0.15994963 0.0017908616 -0.15164837 0.14055225 0.08459705 -0.19821338
00000000: 8e8c 5fbe 9335 9dbe 6f91 e33d d6bb 803e
00000010: ba6f 3d3c 376f 9cbd ca6e 283e 30ee 54be
00000020: 7bc2 843e a164 143e ce26 4ebe 1c9b 71be
00000030: 9d13 e83d 76e7 6b3e 9c7c e03a 0840 31be
00000040: b900 3f3c 308d 0e3e f65d 8c3c f829 17bc
00000050: d430 043e e727 383e b2c4 5abb 4b6c 95be
00000060: f4a8 633e b886 2cbe f05e 323e 3661 13bd
00000070: e9a8 25be ce4d 15be 06f3 9e3d 1bcd 4bbe
00000080: b70f 783d 7a98 21be d977 e7bc fc13 a5bd
00000090: 70b0 51be b21f 9fbe 80d1 98be 8fda 28be
000000a0: 1176 0dbd aab9 51be 0f1d 943e 63c3 45be
000000b0: 42e5 49bd 1055 e3bd 2e32 9abb 6fe4 7dbe
000000c0: 2c36 29be c7a9 203e dbd3 20be 1a8a 2ebe
000000d0: e5c1 4bbc 63ea b03e 82de f5bd 895b 0abd
000000e0: 7aa4 95be a757 c1be bb78 acbe 631b edbd
000000f0: ab3f 9fbe 6163 d3bd af94 26bd 7a2e 93be
00000100: f13d 7e3e 46ca 63be 37b5 51be 4415 9fbb
00000110: 18f1 123e ee37 d53d 8638 edbd 59a4 c5be
00000120: 3d37 40be 0432 6abe 5d60 c3be 635e 173e
00000130: 6f1b 49be 7947 8fbc 9440 87be a98a 873d
00000140: 5962 5e3e ac3f c0be 97a6 28bd e520 bcbd
00000150: 8efc 7fbe 99e9 45be 4cf2 85bd df42 8dbe
00000160: 93d8 a1bd 084f 7f3e 03c3 f2bc 04e6 59be
00000170: 87f2 01bb 9564 513e 75ec 8bbe 7877 b03b
00000180: e3c1 16bd b309 903d 1788 e83d 3898 ce3c
00000190: 10e5 8fbc 7dfe 9abe 879e 963c c58b 823c
000001a0: 00e4 093e aa33 fa3d 3e69 febd d12c c4bb
000001b0: 5ac6 d23d 50a8 3abe d03b ce3d 6ec4 033e
000001c0: 8e9d e1be 3578 2f3e 89ee 8ebe 3c67 cd3b
000001d0: 3597 943d be40 b63d 4fa5 623e 8364 8e3b
000001e0: f2d4 95bd f992 9bbd 715c 2cbe 8011 04bf
000001f0: 3057 473e 6f52 92be f65e d73d 35ab afbe
00000200: e500 0bbe f0d0 b4be 136c 773e 1141 0fbd
00000210: 1489 a73d bca5 743d df25 043d 3d1b ab3d
00000220: 7e5a 3dbe 7848 27be ccab 07be 4870 4fbd
00000230: 4578 b3be 0cb0 bfbe 1334 a13d c685 383e
00000240: c8c3 9e3d 7154 41be 7b96 733d 9bac bf3d
00000250: 29ff dabd b67c eb3d 9ec6 bb3d d7d5 eebd
00000260: 31c9 123d 6eb6 a9be 7aff 42be 7129 3cbe
00000270: 4c74 35be 9898 843e afd8 4ebe d636 1bbe
00000280: 321d a5be e2c1 b3be 819e 21be ab79 1cbe
00000290: 1997 8dbe 802e 783d 83ca 5fbe 62f5 26be
000002a0: 16ba e7bd 8c6e 3e3d e017 de3d b1f0 d03e
000002b0: 0490 03bb e16e 2fbe 30c4 bfbe d385 5dbe
000002c0: 1fef 94be 9d94 e5bd e43a 1fbe d0f7 a9bd
000002d0: 9187 98bd 8f5a 7abd ec1f ab3d 00f8 14be
000002e0: 6749 adbd 2251 313e 8370 743d 63bf 10be
000002f0: a007 2ebe 5c6d 59be b9ad bdbc 6947 4dbe
00000300: 50db f43d e896 203e a2d9 64bd d243 5ebe
00000310: 2c58 04be fa2c 133e 792e 92be 5eee 3abd
00000320: 41ae 283e f53b 92be d535 fb3d b955 51be
00000330: 7535 1abe e276 453e 48bc afbc f6ab 11be
00000340: 9dcb a43d 2509 3ebc f2b2 163e 5117 233d
00000350: a98b 9a3b 2098 dabd fa11 fdbd e1fa 94be
00000360: 93a9 52bd 4728 f03d 68bf eb3d 4e6b 5d3c
00000370: f059 a2be abde 0abe f669 443d 46aa e93d
00000380: e64b a3bd b6f4 293e 2346 70bd 7784 98be
00000390: 2d95 e3bd 4d43 3abe 4dbc 68be c2c7 2cbe
000003a0: 3bd1 0cbe 75da 7d3d 4c79 f43c 3ab0 5dbd
000003b0: f97a 3abe 07aa 4dbe 189a e43d f898 023e
000003c0: 5965 25be f66e 0ebd 15f6 e2bd 90a2 133c
000003d0: d114 893d 2650 2d3e a463 70be 2693 d4be
000003e0: e99b d73d d20d cfbc d6c9 23be 58bb ea3a
000003f0: b649 1bbe eeec 0f3e 3841 ad3d 73f8 4abe

sequential_3/conv1d_8/conv1d f4 [16, 1, 2, 12]
-0.19394013 0.17237166 -0.087469436 -0.14943281 -0.091941796 0.031762954 -0.8292965 0.4262695
-0.29868996 0.040697202 0.06078382 0.11731022 -0.024465509 -0.105939195 0.36293527 0.1084368
0.12632547 -0.05808413 -0.5789663 0.14416227 -0.3182772 -0.10044557 -0.20135757 -0.14355291
-0.35958195 -0.103333555 -0.4129286 -0.010319163 -0.115779966 -0.03701707 -0.021490803 0.88541543
0.20277636 0.019632695 0.13381763 0.12648033 0.19114137 0.44483116 -0.4032289 -0.003008746
0.09986166 0.12562448 0.01640695 0.7301748 -0.05652302 -0.18738884 0.18421043 0.0036121183
0.1365813 0.20760588 0.18548071 0.07833734 0.093297504 -0.066234775 0.26745868 -0.0006711646
0.082472384 0.097408906 -0.23838335 -0.1794872 0.100117676 0.525997 -0.34122258 -0.13848203
-0.11652067 0.020573864 0.11170485 0.120662905 0.1418481 -0.10742667 0.26459512 0.027862819
0.21382771 0.6133678 0.52302545 0.19052637 0.14548744 0.034464303 0.3402524 -0.2373426
0.20867513 -0.08825235 -0.027525421 -0.22494338 0.102940686 0.48940486 0.5677819 -0.07732773
-0.17412563 0.013468551 0.26880643 -0.05181793 -0.026017038 0.005952131 -0.14386833 -0.06497039
-0.15553993 0.30255485 -0.15444985 -0.114904 -0.018462466 0.038334966 -0.027433349 -0.25883976
-0.55289006 -0.1629337 -0.15035146 -0.24144153 0.019827073 0.60281044 -0.21467386 0.024534095
0.035979863 -0.009933095 0.27188748 -0.18037103 -0.52271587 -0.093638614 0.16106214 -0.041309852
-0.08300017 0.10707511 0.38504225 -0.0030299092 0.015104086 0.15484376 -0.076086394 0.45724604
0.09469621 -0.09544909 -0.18623374 0.40015882 -0.40785182 0.37762323 0.016468728 -0.08783728
0.06540669 0.15024474 0.30799773 0.14827071 0.29648936 -0.040657267 -0.057647705 -0.30914465
-0.011146757 -0.07130071 0.7689006 -0.16920942 -0.12552796 0.09206862 -0.04974484 -0.13752112
-0.06536979 0.015415187 0.00024206488 0.27195933 0.065999046 0.012856985 0.81155586 0.16709681
0.15540196 0.0144418515 0.007900308 0.07280157 -0.018398035 -0.07283761 0.06278226 -0.24714544
0.34794942 -0.2632298 -0.1022485 -0.025351647 0.1471246 0.32243383 -0.2621909 -0.07346085
0.1685937 0.011517214 0.16608709 0.17524256 -0.10597838 0.17872946 0.33942753 -0.08396531
-0.13790046 -0.23493345 -0.22772442 -0.007922374 -0.20131123 0.080614135 0.3685194 -0.26465476
-0.1873443 0.46104476 0.26059985 0.046870127 0.08858808 0.1770235 0.20138767 -0.019514445
-0.22951919 -0.060320817 0.21574594 0.20831819 -0.14433004 0.5840934 0.33845022 0.02689418
-0.057490822 -0.08980084 -0.15161005 -0.1713439 -9.894192e-05 0.028771028 -0.02997777 0.0964532
0.26190352 -0.06338903 0.14577556 -0.02796804 0.028294932 -0.08444771 0.38331482 -0.082768925
0.15914406 -0.019262163 -0.037174616 0.27861074 0.39887872 -0.4215662 -0.07368668 -0.071993634
-0.05937112 0.09963496 0.24442132 -0.018979242 0.15499218 -0.016507 -0.12254255 0.21700001
-0.5554976 -0.07756413 0.041467573 0.017319571 0.124023795 -0.12006956 -0.025149928 -0.04952815
0.13170888 -0.12751761 0.35514894 0.40212527 -0.5233685 -0.317361 -0.4448367 0.0886082
00000000: 3e98 46be 3282 303e 2d23 b3bd ea04 19be
00000010: fb4b bcbd df19 023d c74c 54bf ff3f da3e
00000020: e4ed 98be 1cb2 263d 74f8 783d 5740 f03d
00000030: e46b c8bc a6f6 d8bd a7d2 b93e 1d14 de3d
00000040: 775b 013e a0e9 6dbd 2337 14bf 469f 133e
00000050: 3bf5 a2be 68b6 cdbd ae30 4ebe 89ff 12be
00000060: 201b b8be 8ba0 d3bd 616b d3be b511 29bc
00000070: 0c1e edbd 369f 17bd 7b0d b0bc 96aa 623f
00000080: 9ba4 4f3e bfd4 a03c 7d07 093e 0f84 013e
00000090: 90ba 433e e9c0 e33e 0574 cebe 622e 45bb
000000a0: 4584 cc3d b4a3 003e de67 863c bcec 3a3f
000000b0: af84 67bd dce2 3fbe a9a1 3c3e 4ab9 6c3b
000000c0: f8db 0b3e a396 543e a8ee 3d3e 546f a03d
000000d0: c312 bf3d 19a6 87bd 58f0 883e 18f1 2fba
000000e0: 48e7 a83d 527e c73d c41a 74be 7ecb 37be
000000f0: 7f0a cd3d bda7 063f bab4 aebe 3cce 0dbe
00000100: 64a2 eebd 858a a83c 83c5 e43d 1d1e f73d
00000110: a140 113e 8402 dcbd 0379 873e 9140 e43c
00000120: a7f5 5a3e ac05 1d3f ffe4 053f 5819 433e
00000130: a9fa 143e 712a 0d3d 9035 ae3e f009 73be
00000140: efae 553e a6bd b4bd fe7c e1bc 8f57 66be
00000150: 91d2 d23d 4693 fa3e 285a 113f 005e 9ebd
00000160: fd4d 32be 33ab 5c3c ffa0 893e 0a3f 54bd
00000170: af21 d5bc 180a c33b 3852 13be 320f 85bd
00000180: dc45 1fbe 78e8 9a3e 1a28 1ebe ca52 ebbd
00000190: 993e 97bc 2005 1d3d e7bb e0bc a586 84be
000001a0: 348a 0dbf 18d8 26be bcf5 19be 733c 77be
000001b0: 636c a23c c951 1a3f 77d3 5bbe bafb c83c
000001c0: 9f5f 133d 6cbe 22bc d634 8b3e 2fb3 38be
000001d0: b5d0 05bf 9ac5 bfbd 79ed 243e 8534 29bd
000001e0: fefb a9bd 324a db3d 4224 c53e 7191 46bb
000001f0: 2177 773c 5d8f 1e3e 2fd3 9bbd 271c ea3e
00000200: 16f0 c13d d07a c3bd 0fb4 3ebe 9ee1 cc3e
00000210: f4d1 d0be d557 c13e 6de9 863c 08e4 b3bd
00000220: f1f3 853d c2d9 193e e1b1 9d3e 47d4 173e
00000230: 74cd 973e 3c88 26bd 0020 6cbd 3548 9ebe
00000240: e3a0 36bc 1b06 92bd abd6 443f 3c45 2dbe
00000250: 678a 00be 798e bc3d 3fc1 4bbd 56d2 0cbe
00000260: 99e0 85bd fb8f 7c3c ccd2 7d39 413e 8b3e
00000270: 822a 873d 1ba6 523c 20c2 4f3f 6d1b 2b3e
00000280: b121 1f3e 849d 6c3c 4b70 013c fd18 953d
00000290: 7ab7 96bc e32b 95bd fc93 803d b213 7dbe
000002a0: 6d26 b23e 0ec6 86be a967 d1bd 42ae cfbc
000002b0: d5a7 163e 0c16 a53e e33d 86be a472 96bd
000002c0: d4a3 2c3e b2b2 3c3c bc12 2a3e c972 333e
000002d0: 310b d9bd db04 373e 72c9 ad3e 01f6 abbd
000002e0: c735 0dbe 6592 70be 9730 69be d8cc 01bc
000002f0: 8824 4ebe 0619 a53d 93ae bc3e d480 87be
00000300: 2fd7 3fbe 0f0e ec3e 586d 853e e4fa 3f3d
00000310: ab6d b53d a645 353e 9238 4e3e c2dc 9fbc
00000320: 1407 6bbe f612 77bd 81ec 5c3e 5d51 553e
00000330: 41cb 13be 2587 153f 5949 ad3e 2f51 dc3c
00000340: 7f7b 6bbd 81e9 b7bd aa3f 1bbe c674 2fbe
00000350: 0a7f cfb8 38b1 eb3c f193 f5bc 4189 c53d
00000360: 3818 863e 1cd2 81bd 3046 153e 3b1d e5bc
00000370: c6ca e73c ecf2 acbd d741 c43e c182 a9bd
00000380: a9f6 223e afcb 9dbc 6944 18bd 11a6 8e3e
00000390: d539 cc3e 86d7 d7be 0be9 96bd 6671 93bd
000003a0: 222f 73bd 6a0d cc3d 9549 7a3e 5b7a 9bbc
000003b0: 45b6 1e3e b039 87bc 97f7 fabd 4035 5e3e
000003c0: 1735 0ebf f1d9 9ebd e7d9 293d c6e1 8d3c
000003d0: 3000 fe3d 08e7 f5bd 3907 cebc 08de 4abd
000003e0: b1de 063e fa93 02be 15d6 b53e 5de3 cd3e
000003f0: 7afb 05bf 247d a2be a3c1 e3be 3778 b53d

sequential_3/conv1d_9/conv1d f4 [32, 1, 2, 16]
-0.03573261 0.31258127 -0.11838024 -0.07451887 -0.26531088 -0.073618166 0.12241249 0.18443003
0.07444587 -0.060018603 -0.10564904 -0.1493516 0.1960333 0.21028273 -0.16265988 -0.12049666
-0.0555411 0.26520586 -0.1795573 0.21347526 -0.17452651 0.08990836 0.028959166 -0.0868872
-0.16741982 -0.12585513 0.034995083 0.013764149 0.022603925 -0.051755615 0.11517222 0.18258616
-0.04274126 -0.38174635 0.05302108 0.04811592 -0.12764521 -0.031320795 -0.19716777 -0.2264306
-0.0019799315 0.044090826 -0.2716571 0.2930393 0.0049195145 -0.020303562 0.08305341 0.067990616
-0.114087515 -0.13442256 0.11855415 -0.013469072 -0.12093301 0.20076682 -0.01378183 -0.1094163
0.081710644 0.08080605 -0.11471726 0.13080026 0.16651961 0.12905276 0.042558257 0.252251
-0.27825078 0.0019988227 0.15041628 -0.17628738 -0.0240315 -0.25954318 -0.07664497 0.11620175
-0.036752734 0.23174502 0.15145323 -0.027313653 0.08294525 0.252704 -0.22650728 -0.09205173
-0.13580103 -0.19089171 0.115729 0.0865947 -0.07472583 -0.011191209 -0.059678923 0.22463332
-0.1433506 0.14663252 0.118905015 -0.02235179 0.19131902 -0.0663206 0.11672418 -0.122579515
-0.34659347 -0.1185833 -0.20263508 -0.1446098 0.03462584 -0.21611746 0.15863185 -0.17963184
-0.20929559 0.056441475 0.04319836 0.068498045 0.00084120623 -0.32329342 -0.0399788 -0.4529997
-0.14160505 -0.25815 -0.04166039 0.15820514 0.12189531 -0.11869594 -0.15867971 -0.05702501
-0.04735667 -0.07206288 -0.043309834 -0.072352774 -0.04900295 -0.1999583 -0.057414338 -0.34099945
0.23307067 0.22973691 -0.008864302 -0.23113272 0.09598889 -0.18869199 -0.012298195 -0.20542765
0.0494095 0.03695559 0.050702035 -0.036262732 0.028166277 0.060343783 0.041684248 0.12209252
0.31735572 -0.23910332 0.050097533 -0.06402137 -0.27309257 -0.027571915 0.10200548 0.1108588
0.21825184 0.027992623 -0.041977327 0.16468321 0.11724583 0.15308288 0.09255063 -0.22661039
-0.09846394 -0.24308169 0.00486527 -0.18755044 -0.19788386 0.111678444 -0.34482604 -0.02280061
0.13182536 -0.0901677 0.010303573 -0.35284278 -0.0090900855 0.16510594 0.0038109515 0.25417423
0.24525428 -0.1573859 -0.21095517 -0.0045360443 -0.33093196 0.07913005 -0.37850428 0.025594011
0.27473012 0.00031591178 -0.17223234 0.13684115 -0.23618731 -0.069634855 0.0125608295 -0.030742863
-0.017594818 -0.0011384699 -0.09256945 -0.5861341 -0.2958329 -0.24245684 0.003825826 -0.25236744
-0.23081088 -0.12613742 -0.15080443 -0.05521855 -0.17138797 0.036782026 -0.027605154 0.011828405
-0.17451315 -0.19444221 -0.1224339 0.06842963 -0.19790667 -0.09917446 -0.51734036 0.12320377
-0.04977065 0.07331978 -0.12792516 0.03220125 -0.119436674 0.2576202 -0.08967242 -0.32756564
-0.12958927 -0.22160058 0.04227761 -0.2696017 0.22547059 -0.18995124 -0.09341817 0.027303757
-0.26967263 -0.19445832 -0.20239845 -0.1628912 -0.1444875 -0.23838492 0.13535264 -0.20288014
-0.11455652 0.009974421 0.1121182 0.12440922 -0.2827136 0.026576132 0.07851644 0.1458414
0.21716537 0.110652804 -0.19762518 -0.018537464 0.04414477 -0.06092927 -0.30752873 0.11120246
00000000: 5b5c 12bd a70a a03e 5771 f2bd 599d 98bd
00000010: d4d6 87be 1fc5 96bd 66b3 fa3d 3adb 3c3e
00000020: 1477 983d 11d6 75bd 865e d8bd a0ef 18be
00000030: f4bc 483e 5b54 573e 5090 26be f4c6 f6bd
00000040: 117f 63bd 10c9 873e dedd 37be 4299 5a3e
00000050: 14b7 32be e021 b83d c63b ed3c ebf1 b1bd
00000060: 1a70 2bbe 2be0 00be 0157 0f3d 0683 613c
00000070: de2b b93c b2fd 53bd 6adf eb3d def7 3a3e
00000080: 7611 2fbd 4274 c3be a22c 593d 3315 453d
00000090: 6db5 02be 3c4a 00bd 59e6 49be 6cdd 67be
000000a0: bdc1 01bb 9598 343d a416 8bbe 3f09 963e
000000b0: e133 a13b a853 a6bc e817 aa3d aa3e 8b3d
000000c0: b7a6 e9bd 11a6 09be 85cc f23d 62ad 5cbc
000000d0: baab f7bd d195 4d3e 2fcd 61bc a715 e0bd
000000e0: e957 a73d a47d a53d e2f0 eabd 81f0 053e
000000f0: 1e84 2a3e 6826 043e 9151 2e3d 0b27 813e
00000100: e376 8ebe aefe 023b ba06 1a3e ae84 34be
00000110: b5dd c4bc d8e2 84be 0af8 9cbd 2ffb ed3d
00000120: 098a 16bd 914e 6d3e 8e16 1b3e e2c0 dfbc
00000130: 33df a93d 6b62 813e 86f1 67be 9e85 bcbd
00000140: 6d0f 0bbe 1e79 43be 5303 ed3d 9058 b13d
00000150: db09 99bd 555b 37bc e371 74bd 4706 663e
00000160: 80ca 12be d626 163e 7984 f33d 1a1b b7bc
00000170: 22e9 433e 18d3 87bd 160d ef3d f80a fbbd
00000180: b374 b1be cddb f2bd 927f 4fbe 9714 14be
00000190: d3d3 0d3d e54d 5dbe 6370 223e 69f1 37be
000001a0: 9551 56be 2d2f 673d c3f0 303d b448 8c3d
000001b0: 6584 5c3a b786 a5be cfc0 23bd 94ef e7be
000001c0: ea00 11be 3d2c 84be 16a4 2abd 8700 223e
000001d0: 40a4 f93d db16 f3bd ef7c 22be 0f93 69bd
000001e0: 11f9 41bd b495 93bd a765 31bd b12d 94bd
000001f0: 51b7 48bd dec1 4cbe 4c2b 6bbd 7b97 aebe
00000200: 14aa 6e3e 2740 6b3e 943b 11bc 0eae 6cbe
00000210: d395 c43d 7938 41be 5e7e 49bc a05b 52be
00000220: 9e61 4a3d bf5e 173d f0ac 4f3d 3b88 14bd
00000230: f7bc e63c 0b2b 773d 1abd 2a3d a50b fa3d
00000240: 737c a23e 80d7 74be 1233 4d3d a31d 83bd
00000250: cad2 8bbe 7fde e1bc 40e8 d03d f009 e33d
00000260: 697d 5f3e c950 e53c 6bf0 2bbd b7a2 283e
00000270: 951e f03d c2c1 1c3e 2f8b bd3d 8e0c 68be
00000280: 76a7 c9bd 68ea 78be d86c 9f3b 390d 40be
00000290: 11a2 4abe abb7 e43d 0a8d b0be 58c8 babc
000002a0: 3afd 063e d8a9 b8bd 51d0 283c cfa7 b4be
000002b0: 95ee 14bc 8811 293e 28c1 793b 2023 823e
000002c0: f023 7b3e c529 21be a204 58be 19a3 94bb
000002d0: ea6f a9be f00e a23d 50cb c1be 88aa d13c
000002e0: 6da9 8c3e f6a0 a539 ad5d 30be 1620 0c3e
000002f0: 16db 71be b89c 8ebd f0cb 4d3c 75d8 fbbc
00000300: 0223 90bc b638 95ba 0d95 bdbd e20c 16bf
00000310: 6977 97be 9b46 78be b6ba 7a3b 4e36 81be
00000320: b059 6cbe 2b2a 01be 7a6c 1abe d92c 62bd
00000330: 5480 2fbe c0a8 163d 3424 e2bc edcb 413c
00000340: 93b3 32be dc1b 47be a0be fabd d524 8c3d
00000350: 0ca8 4abe fb1b cbbd 6b70 04bf 4252 fc3d
00000360: 4fdc 4bbd ae28 963d d0fe 02be 75e5 033d
00000370: 379b f4bd cbe6 833e 2ca6 b7bd afb6 a7be
00000380: 0db3 04be 43eb 62be 4a2b 2d3d 3c09 8abe
00000390: c3e1 663e 9482 42be 0752 bfbd 21ac df3c
000003a0: 8812 8abe 1520 47be 8a41 4fbe f3cc 26be
000003b0: 88f4 13be 2d1b 74be e299 0a3e d0bf 4fbe
000003c0: 9c9c eabd c16b 233c 3a9e e53d 43ca fe3d
000003d0: d6bf 90be 30b6 d93c 3acd a03d 7357 153e
000003e0: 9960 5e3e f09d e23d 415e 4abe e1db 97bc
000003f0: 25d1 343d f890 79bd 6874 9dbe 1ebe e33d

sequential_3/conv1d_10/conv1d f4 [64, 1, 2, 32]
0.13103504 -0.062283445 0.12486739 -0.0039821486 -0.08927765 -0.04523765 0.09422967 -0.00030708298
0.009204216 -0.08402435 0.036511257 -0.02589392 0.16854542 0.24663785 0.038944863 -0.15461196
-0.19619992 -0.012501414 0.0102419285 -0.08214161 -0.10682139 0.02415477 -0.11928355 -0.096547596
-0.071507886 -0.14564818 -0.08103318 0.001100174 -0.056890123 0.06266958 -0.11566056 0.04508727
-0.15996122 -0.04365496 -0.09548147 -0.031303514 -0.047371674 -0.07438719 0.26257768 0.011815853
0.148974 -0.0789663 0.05112918 -0.14679375 0.08536968 0.027035838 -0.05642067 0.03865458
0.14093576 -0.0172709 0.09112533 0.07625194 -0.17495997 -0.043842554 0.0068058115 0.24590866
-0.063142434 -0.15155736 -0.06113402 0.005781839 0.04526999 -0.022523502 -0.15736227 -0.24306093
0.05809631 -0.12780048 0.06460519 -0.13979352 -0.17120866 -0.05476944 -0.10415499 -0.13766336
0.010622564 0.15959959 -0.23387426 -0.12765238 -0.16031028 0.018780418 0.016470086 -0.08594638
-0.022955323 -0.0887471 0.08971093 0.04999561 0.16012423 -0.17247127 -0.096863605 -0.10889208
0.011464666 0.12647696 -0.1610506 -0.1302124 0.03476302 -0.1460345 -0.032757048 0.19560322
-0.09462396 -0.18877313 0.001404721 -0.1174345 -0.013882471 0.073654786 0.08947199 0.07627379
5.9401325e-05 0.017538628 -0.26727495 0.06933312 -0.084436215 -0.18694404 -0.004473362 -0.17572775
0.02326403 -0.046662208 -0.09058946 -0.06328715 0.01884664 -0.079184815 0.1236995 -0.032190997
-0.071615696 0.012937743 0.0383539 0.13490643 -0.0651561 -0.12277441 -0.011410666 -0.13608234
0.094307445 -0.14482534 0.15208271 0.008940081 -0.07058133 -0.025844544 -0.24879807 -0.24195305
0.08566761 -0.17274402 0.060559638 -0.07524437 0.10366944 0.06502618 0.11897659 0.13252416
0.030789783 -0.009357837 -0.04740587 -0.07367305 0.16123392 -0.21127746 -0.051015515 -0.06479538
0.11115177 -0.030858526 -0.010298159 0.019618414 0.012061653 -0.19867575 -0.042425886 0.05370639
0.00035178958 -0.015455966 0.06666117 0.11575944 0.0850531 0.0040542814 0.077453434 -0.11730499
-0.0036616009 -0.17991073 -0.21814042 0.0018443926 0.046723645 0.11426755 -0.01397001 0.048006188
0.14059669 0.09880987 -0.152824 -0.07608015 0.13594785 -0.0524997 0.031661894 0.033210598
0.1373337 -0.24084707 -0.19257219 0.042334493 0.044554558 0.036251318 -0.05057686 -0.22556448
0.015170833 0.11594847 -0.16088514 -0.041701324 -0.03669212 0.041570447 0.06279565 0.031558774
0.06878718 -0.070175655 -0.04684036 -0.16956489 0.034937143 -0.1427531 0.012185884 0.10235221
-0.17177376 0.01321977 0.107382216 0.104416035 -0.076471955 0.036472622 -0.027313676 0.032354422
0.041097242 -0.064139016 0.14479822 0.1554337 0.0810633 -0.0021337895 -0.10208672 -0.1670614
-0.09785584 -0.017929878 -0.041866165 -0.0056262263 0.045852922 0.061321337 -0.06035726 -0.14866911
0.048276447 -0.06737559 -0.0427448 -0.07721077 0.1333719 -0.012628942 0.02959184 0.056340702
-0.018942786 0.12067904 -0.084516555 0.12262424 -0.067112826 -0.16208869 0.09960674 -0.120365486
-0.12734966 -0.025252389 -0.20490082 0.06748436 -0.044154376 0.094745696 0.12509125 -0.04888702
00000000: 0d2e 063e ed1c 7fbd 79ba ff3d af7c 82bb
00000010: 33d7 b6bd 1d4b 39bd 7cfb c03d fbff a0b9
00000020: 48cd 163c f514 acbd d48c 153d 7c1f d4bc
00000030: 2c97 2c3e a28e 7c3e a684 1f3d 9952 1ebe
00000040: a2e8 48be bbd2 4cbc c3cd 273c dc39 a8bd
00000050: 2cc5 dabd 39e0 c53c ef4a f4bd bfba c5bd
00000060: ba72 92bd cc24 15be b9f4 a5bd b733 903a
00000070: 9e05 69bd e958 803d 72df ecbd 6ead 383d
00000080: e0cc 23be 8bcf 32bd ca8b c3bd 1d38 00bd
00000090: cd08 42bd 5058 98bd 9570 863e 4897 413c
000000a0: a48c 183e 15b9 a1bd d56c 513d 1a51 16be
000000b0: 4cd6 ae3d 437a dd3c 5c19 67bd 4454 1e3d
000000c0: 7751 103e b47b 8dbc eb9f ba3d fa29 9c3d
000000d0: b528 33be 4094 33bd 4903 df3b 7bcf 7b3e
000000e0: d250 81bd da31 1bbe ab67 7abd 9575 bd3b
000000f0: 066d 393d 3583 b8bc 9323 21be f7e4 78be
00000100: 65f6 6d3d 21de 02be ba4f 843d 0826 0fbe
00000110: 5351 2fbe ec55 60bd 364f d5bd a0f7 0cbe
00000120: 430a 2e3c 136e 233e bc7c 6fbe 4eb7 02be
00000130: 6128 24be 64d9 993c 46ec 863c a804 b0bd
00000140: cd0c bcbc 0ac1 b5bd 5dba b73d 32c8 4c3d
00000150: 9bf7 233e 4f9c 30be 6d60 c6bd d002 dfbd
00000160: 4bd6 3b3c 2d83 013e 73ea 24be 6656 05be
00000170: ab63 0e3d 118a 15be 412c 06bd 364c 483e
00000180: 35ca c1bd be4d 41be 9e1e b83a 8081 f0bd
00000190: 4e73 63bc 52d8 963d 173d b73d 6f35 9c3d
000001a0: b025 7938 2bad 8f3c 43d8 88be 86fe 8d3d
000001b0: e5ec acbd 426e 3fbe 4895 92bb faf1 33be
000001c0: 3594 be3c df20 3fbd f886 b9bd b19c 81bd
000001d0: 4564 9a3c a62b a2bd 2a56 fd3d b5da 03bd
000001e0: 40ab 92bd d4f8 533c fb18 1d3d e924 0a3e
000001f0: 9070 85bd 2671 fbbd cdf3 3abc 2b59 0bbe
00000200: 4324 c13d 184d 14be 92bb 1b3e 6b79 123c
00000210: f28c 90bd f0b7 d3bc ecc4 7ebe 8ac2 77be
00000220: 8072 af3d cfe3 30be 620d 783d b819 9abd
00000230: a550 d43d 722c 853d 00aa f33d 6ab4 073e
00000240: db3a fc3c 9d51 19bc a82c 42bd e5e1 96bd
00000250: 811a 253e 1e59 58be a5f5 50bd 71b3 84bd
00000260: 8aa3 e33d 05cb fcbc 9cb9 28bc ccb6 a03c
00000270: 3d9e 453c a871 4bbe c4c6 2dbd 3bfb 5b3d
00000280: 6670 b839 053b 7dbc a785 883d 4913 ed3d
00000290: 5230 ae3d c7d9 843b e89f 9e3d 993d f0bd
000002a0: 78f7 6fbb 853a 38be 3460 5fbe 8cbf f13a
000002b0: 4b61 3f3d 1b05 ea3d 78e2 64bc 23a2 443d
000002c0: 94f8 0f3e d45c ca3d e57d 1cbe e9cf 9bbd
000002d0: ea35 0b3e ed09 57bd e7af 013d d607 083d
000002e0: 35a1 0c3e 9da0 76be a531 45be ef66 2d3d
000002f0: d77e 363d 437c 143d ae29 4fbd 60fa 66be
00000300: 168f 783c 6476 ed3d 13bf 24be 02cf 2abd
00000310: 7a4a 16bd c645 2a3d 019b 803d c643 013d
00000320: 4be0 8c3d 41b8 8fbd addb 3fbd 6ba2 2dbe
00000330: 401a 0f3d de2d 12be 4da7 473c 099e d13d
00000340: 76e5 2fbe bc97 583c 35eb db3d 13d8 d53d
00000350: 549d 9cbd 5164 153d eec0 dfbc 1286 043d
00000360: 9555 283d 515b 83bd fc45 143e 032a 1f3e
00000370: 8404 a63d 0cd7 0bbb d812 d1bd 2512 2bbe
00000380: a568 c8bd aee1 92bc db7b 2bbd 355c b8bb
00000390: 46d0 3b3d 152c 7b3d 2d39 77bd b73c 18be
000003a0: 86bd 453d 37fc 89bd 2c15 2fbd ae20 9ebd
000003b0: a592 083e 9fe9 4ebc 966a f23c 82c5 663d
000003c0: e72d 9bbc 9326 f73d 0417 adbd 6b22 fb3d
000003d0: 7372 89bd 94fa 25be 9efe cb3d 2e82 f6bd
000003e0: f367 02be 19de cebc 85d1 51be 3d35 8a3d
000003f0: 38db 34bd 080a c23d ec17 003e c23d 48bd
