app/src/main/ml/model.tflite (tflite, 300980 bytes, 12 tensors)

sequential/activation/Relu;sequential/batch_normalization_1/batchnorm/add_1;sequential/conv1d/conv1d/Squeeze;sequential/batch_normalization_1/batchnorm/mul_1;sequential/conv1d/BiasAdd;sequential/conv1d/BiasAdd/ReadVariableOp/resource;sequential/batch_normalization_1/batchnorm/mul;sequential/batch_normalization_1/batchnorm/sub;sequential/conv1d/conv1d f4 [16]
0.14447434 0.12461709 -0.14032723 -0.17841356 -0.093675986 -0.19890176 -0.09592825 0.100708306
0.17011614 -0.040833373 -0.061664358 -0.07471987 0.063069016 0.04612898 -0.11357812 0.05810524
00000000: 15f1 133e 3f37 ff3d f1b1 0fbe 0bb2 36be
00000010: 32d9 bfbd e7ac 4bbe 0876 c4bd 2840 ce3d
00000020: ed32 2e3e e540 27bd c493 7cbd bb06 99bd
00000030: 542a 813d bef1 3c3d a59b e8bd c3ff 6d3d

sequential/activation_1/Relu;sequential/batch_normalization_2/batchnorm/add_1;sequential/conv1d_1/conv1d/Squeeze;sequential/batch_normalization_2/batchnorm/mul_1;sequential/conv1d_1/BiasAdd;sequential/conv1d_1/BiasAdd/ReadVariableOp/resource;sequential/batch_normalization_2/batchnorm/mul;sequential/batch_normalization_2/batchnorm/sub;sequential/conv1d_1/conv1d f4 [32]
0.9204099 1.1027694 0.6937972 1.0171444 -0.4820442 -0.269369 -1.2044418 -0.44595054
-0.4924277 0.09814783 0.06911184 1.1525007 -0.7305227 0.79330266 -0.5502647 0.37311637
0.12939017 0.61552 0.99415374 -0.4377542 0.3201286 0.290612 1.5207094 1.032133
0.09001578 -0.31822944 -0.46826527 0.22913577 -0.34563562 0.5697808 0.49367946 0.05404474
00000000: fc9f 6b3f 8c27 8d3f b19c 313f ca31 823f
00000010: 7fce f6be bcea 89be 262b 9abf a153 e4be
00000020: 7c1f fcbe bb01 c93d 828a 8d3d 2585 933f
00000030: 8903 3bbf e215 4b3f 26de 0cbf 1c09 bf3e
00000040: db7e 043e b892 1d3f dc80 7e3f 5221 e0be
00000050: e5e7 a33e 19cb 943e 9ba6 c23f ef1c 843f
00000060: 315a b83d f8ee a2be 77c0 efbe 91a2 6a3e
00000070: 27f7 b0be 28dd 113f 8ec3 fc3e 045e 5d3d

sequential/activation_2/Relu;sequential/batch_normalization_3/batchnorm/add_1;sequential/conv1d_2/conv1d/Squeeze;sequential/batch_normalization_3/batchnorm/mul_1;sequential/conv1d_2/BiasAdd;sequential/conv1d_2/BiasAdd/ReadVariableOp/resource;sequential/batch_normalization_3/batchnorm/mul;sequential/batch_normalization_3/batchnorm/sub;sequential/conv1d_2/conv1d f4 [64]
-0.91731757 -0.3212497 1.4881289 0.29549044 -0.1421835 0.62025625 0.6371589 1.1514729
1.125267 0.40798682 1.6940433 0.119006224 -0.17438222 0.774557 0.7162354 -0.51538974
1.1359178 -0.6161409 0.42297122 -0.035205524 -0.47877872 0.54516256 0.5330674 0.73592305
-0.82972187 -1.1027578 1.6760606 0.4547907 0.8224844 1.0656353 0.9959324 -0.96090496
-1.672242 0.07375668 0.6918972 -1.0998472 0.7858736 -0.21152574 0.22193103 0.43777102
-1.0299222 -0.7116285 -1.3409257 0.5025257 -0.16687587 1.5685158 -1.1211629 1.13634
-0.91716033 -1.000221 -0.020009622 0.62541246 0.6591685 0.5509414 0.96148616 0.14144786
-0.78083265 0.23956522 -0.06700063 0.34445313 -0.013291078 1.790296 0.5323955 -0.020365424
00000000: 53d5 6abf d77a a4be 027b be3f 864a 973e
00000010: 8d98 11be 1dc9 1e3f d81c 233f 7763 933f
00000020: c008 903f a6e3 d03e 69d6 d83f 89b9 f33d
00000030: 4191 32be 5e49 463f 345b 373f 95f0 03bf
00000040: c165 913f 69bb 1dbf af8f d83e ab33 10bd
00000050: 7c22 f5be c68f 0b3f 1b77 083f 7465 3c3f
00000060: a768 54bf 2b27 8dbf 2789 d63f 54da e83e
00000070: 568e 523f bd66 883f 6df5 7e3f defd 75bf
00000080: 070c d6bf be0d 973d 2d20 313f cbc7 8cbf
00000090: 032f 493f 349a 58be e341 633e 8623 e03e
000000a0: 7ed4 83bf 492d 36bf 74a3 abbf 86a5 003f
000000b0: 82e1 2abe 20c5 c83f 4482 8fbf 9773 913f
000000c0: 05cb 6abf 3e07 80bf 38eb a3bc 081b 203f
000000d0: 44bf 283f 7f0a 0d3f f523 763f b5d7 103e
000000e0: a6e4 47bf 9650 753e a037 89bd 295c b03e
000000f0: d2c2 59bc 6b28 e53f 124b 083f 64d5 a6bc

sequential/batch_normalization_1/batchnorm/mul_1;sequential/conv1d/conv1d/Squeeze;sequential/conv1d/BiasAdd;sequential/conv1d/BiasAdd/ReadVariableOp/resource;sequential/batch_normalization_1/batchnorm/mul;sequential/conv1d/conv1d f4 [16, 1, 3, 6]
-0.031947322 -0.35447332 0.11297565 0.042680107 -0.035579387 0.12149387 0.09677674 -0.045218743
-0.4398066 -0.30020174 0.30272046 0.10048386 0.05166793 0.44824755 -0.1752935 -0.33132312
0.15638521 0.340862 0.12210694 -0.017168744 -0.29213956 0.037009545 0.1139499 -0.24808109
0.048576176 -0.02498241 -0.25419182 0.08092616 -0.106633045 -0.054595724 0.19073834 -0.19103423
-0.15956065 -0.26125747 0.039027058 -0.23161589 -0.23902738 -0.30769643 -0.029473638 0.13136145
-0.18343695 -0.15450998 0.014135589 -0.08297323 0.30936128 -0.16171189 0.16765559 -0.19924808
-0.12693322 -0.17323591 0.148548 -0.14740151 0.062451363 -0.067983724 0.13102254 0.42326212
0.24127701 0.09525842 -0.15537354 -0.011206773 0.06278901 0.22592932 0.040855564 0.13757455
0.15002176 -0.1951248 0.22266045 -0.0005358122 -0.13416581 0.14473242 0.12692003 -0.15870975
0.24247965 -0.17237452 0.055763017 0.10595096 0.2866036 -0.13401183 0.19103274 -0.115298204
-0.189399 -0.02883294 0.04579649 -0.22140878 0.38741264 -0.24772961 -0.040768784 -0.15494859
-0.1430607 0.0708727 -0.5472895 -0.5016387 0.23016515 -0.33392873 0.17658642 0.27161264
-0.049721055 -0.29550824 -0.0019687274 0.019139022 -0.15295595 -0.0036864812 -0.1784711 0.42761457
-0.05872896 0.104165144 0.092964515 -0.20647939 0.015629364 0.033058416 0.23218496 0.103615254
0.17386729 0.013563392 -0.09755852 0.245832 -0.008932267 0.044557262 0.09349978 -0.1350729
-0.117716245 0.39241531 -0.035264786 -0.026622009 -0.04034377 0.17310429 -0.03164054 0.123767614
0.14062981 0.2741993 0.3023401 0.27761072 0.09568515 0.22403203 0.08717705 0.47150612
-0.13835682 -0.09674251 -0.11649884 -0.33144432 -0.1554903 0.32084072 0.1851139 0.2908652
0.16396317 0.14136973 0.48260254 0.049864635 -0.16788685 -0.096599445 -0.19318716 -0.2921813
-0.18484235 -0.29426908 -0.19069318 -0.20774777 0.04122103 0.3702836 -0.5295193 -0.27573526
-0.29807413 -0.28289744 0.09136446 -0.08749062 0.120276205 -0.165793 0.123160005 0.10301581
0.10427125 -0.16556196 0.2646994 0.09180415 0.23365405 -0.1787656 -0.09917978 -0.33025336
0.04978898 0.08296873 0.32169288 -0.16177852 -0.2818496 0.33807677 0.09820916 -0.12756687
0.1379228 0.052921947 0.007844436 -0.36503765 0.39908758 0.18145148 0.098098725 0.2051765
-0.23910892 -0.4571906 0.11316288 -0.038321465 -0.01256547 0.09502295 -0.36557338 -0.563331
-0.41238052 0.3411448 -0.20338182 0.13043319 -0.115244426 -0.010388322 0.33541816 0.06815906
0.19341607 -0.24601907 -0.55210745 0.19033027 0.045425273 -0.06867302 -0.18006377 -0.08220863
0.22712317 0.10851615 -0.10077856 -0.13157307 0.119523704 -0.33741164 0.26406747 0.063217945
0.10154825 0.29478735 0.02265149 -0.19130556 0.059917543 0.06702579 -0.20600903 0.22970705
-0.1902115 -0.03409417 0.18955962 -0.10911035 0.4531012 0.26085272 0.15919171 0.19250727
-0.050466705 0.058193382 0.026966847 -0.2681212 0.1391915 0.12851197 0.14930552 -0.06938434
0.42385766 -0.23752476 -0.08436954 -0.15918091 -0.0975901 0.245852 0.061335046 0.1286833
00000000: 32db 02bd 877d b5be c75f e73d 56d1 2e3d
00000010: b1bb 11bd c7d1 f83d e232 c63d 4a37 39bd
00000020: 552e e1be 0bb4 99be 2dfe 9a3e 7bca cd3d
00000030: c0a1 533d b480 e53e 2480 33be 2fa3 a9be
00000040: 7223 203e 7785 ae3e 3413 fa3d 77a5 8cbc
00000050: 5193 95be 5297 173d 915e e93d f808 7ebe
00000060: d0f7 463d e9a7 ccbc 6e25 82be 9dbc a53d
00000070: 6d62 dabd c49f 5fbd e950 433e 7a9e 43be
00000080: de63 23be 8ac3 85be d6da 1f3d b72c 6dbe
00000090: 98c3 74be 638a 9dbe b372 f1bc 9e83 063e
000000a0: e5d6 3bbe dd37 1ebe f598 673c deed a9bd
000000b0: 9a64 9e3e cd97 25be e8ad 2b3e b007 4cbe
000000c0: c8fa 01be c164 31be f81c 183e 6cf0 16be
000000d0: 00cd 7f3d 0d3b 8bbd c62a 063e d0b5 d83e
000000e0: 5211 773e d916 c33d 3e1a 1fbe 9d9c 37bc
000000f0: 8697 803d 045a 673e 2a58 273d 58e0 0c3e
00000100: 4e9f 193e ccce 47be 1a01 643e c075 0cba
00000110: c362 09be bc34 143e 53f7 013e cf84 22be
00000120: 964c 783e f282 30be c367 643d d1fc d83d
00000130: b5bd 923e 663a 09be 169e 433e 7721 ecbd
00000140: d0f1 41be 0f33 ecbc 1a95 3b3d fcb8 62be
00000150: f35a c63e d5ac 7dbe 2bfd 26bd d8aa 1ebe
00000160: 817e 12be b525 913d 2a1b 0cbf 656b 00bf
00000170: 6ab0 6b3e b5f8 aabe 12d3 343e d010 8b3e
00000180: 4ea8 4bbd db4c 97be c405 01bb 70c9 9c3c
00000190: 7ca0 1cbe e498 71bb 21c1 36be 4cf0 da3e
000001a0: c78d 70bd 8954 d53d 2e64 be3d 556f 53be
000001b0: 2709 803c 4368 073d e5c1 6d3e 3c34 d43d
000001c0: 440a 323e fd38 5e3c c3cc c7bd 62bb 7b3e
000001d0: a558 12bc ad81 363d d07c bf3d 8d50 0abe
000001e0: 3715 f1bd a9ea c83e cf71 10bd 6616 dabc
000001f0: 823f 25bd 4042 313e 8399 01bd e079 fd3d
00000200: 4301 103e da63 8c3e 52cc 9a3e fe22 8e3e
00000210: 93f6 c33d a768 653e e289 b23d 4069 f13e
00000220: 69ad 0dbe f020 c6bd f296 eebd 12b3 a9be
00000230: d938 1fbe 3c45 a43e 808e 3d3e 49ec 943e
00000240: f6e5 273e 3ac3 103e ae17 f73e dc3e 4c3d
00000250: 88ea 2bbe eed5 c5bd dbd2 45be ca98 95be
00000260: 5047 3dbe 70aa 96be 1345 43be d5bb 54be
00000270: 62d7 283d d095 bd3e 948e 07bf 2c2d 8dbe
00000280: 2c9d 98be efd7 90be 4a1d bb3d 482e b3bd
00000290: 5f53 f63d a4c5 29be 503b fc3d f4f9 d23d
000002a0: 2a8c d53d 1389 29be ae86 873e d003 bc3d
000002b0: 0243 6f3e 540e 37be c51e cbbd f816 a9be
000002c0: 88ef 4b3d 82eb a93d eeb4 a43e 45a9 25be
000002d0: 974e 90be 6618 ad3e e221 c93d e4a0 02be
000002e0: a23b 0d3e afc4 583d f385 003c 37e6 babe
000002f0: 3555 cc3e 6bce 393e fce7 c83d ca19 523e
00000300: f8d8 74be e314 eabe f1c1 e73d f8f6 1cbd
00000310: 67df 4dbc 649b c23d 6f2c bbbe 7636 10bf
00000320: 8a23 d3be 88aa ae3e 5343 50be 4790 053e
00000330: 4505 ecbd c833 2abc eebb ab3e fa96 8b3d
00000340: dd0e 463e 6cec 7bbe ea56 0dbf f0e5 423e
00000350: da0f 3a3d 71a4 8cbd a362 38be 005d a8bd
00000360: fa92 683e b73d de3d fd64 cebd 17bb 06be
00000370: d8c8 f43d 38c1 acbe da33 873e 6978 813d
00000380: 87f8 cf3d 5eee 963e 9e8f b93c 9be5 43be
00000390: 196c 753d d144 893d 08f4 52be 5338 6b3e
000003a0: cec6 42be 54a6 0bbd eb1b 423e 3f75 dfbd
000003b0: e1fc e73e 7d8e 853e 2703 233e a020 453e
000003c0: 2db6 4ebd 2f5c 6e3d 94e9 dc3c 2f47 89be
000003d0: 3788 0e3e a498 033e 8ce3 183e 6019 8ebd
000003e0: df03 d93e b139 73be f0c9 acbd 5200 23be
000003f0: 51dd c7bd a0c0 7b3e 753a 7b3d 8ec5 033e

sequential/batch_normalization_2/batchnorm/mul_1;sequential/conv1d_1/conv1d/Squeeze;sequential/conv1d_1/BiasAdd;sequential/conv1d_1/BiasAdd/ReadVariableOp/resource;sequential/batch_normalization_2/batchnorm/mul;sequential/conv1d_1/conv1d f4 [32, 1, 3, 16]
-0.25361043 0.49841234 -0.03278002 -0.29315245 0.021133345 -0.15988186 0.45002145 -0.29770294
0.024546029 0.020222217 -0.27470714 -0.13555934 -0.4068259 0.15641382 0.0014121733 0.19750172
-0.42989123 -0.08622069 -0.36718187 -0.24273068 -0.008821575 -0.14356281 0.3205298 -0.03193443
0.09060298 0.2943375 0.3382873 -0.3268032 -0.41728577 0.044418268 -0.0019590943 0.24509515
0.01020675 -0.027758643 -0.18346958 -0.28509167 -0.20734704 0.041889954 -0.14557324 -0.29149336
-0.09864473 0.2560732 -0.1992095 -0.007133802 -0.3849777 -0.10629906 -0.22333257 -0.046899404
-0.1416003 -0.13643934 -0.14143904 0.0794421 -0.22442909 0.18919712 -0.097219795 0.2361729
-0.07339748 -0.2299896 -0.1430822 0.37144074 0.028662162 -0.28305262 -0.33745125 0.24649599
-0.000749325 -0.29269424 0.053856637 -0.06848007 0.10231648 -0.036852818 0.14924993 0.27427873
-0.18590346 -0.25923827 0.064596996 -0.04415064 -0.43296385 -0.0491912 0.29761982 -0.33775476
-0.105959326 -0.1199162 -0.45188987 0.1669565 -0.014879886 -0.40304762 -0.14137396 -0.2027808
0.13995168 -0.15850875 0.07878749 0.01287295 -0.3668711 -0.17385355 0.31505755 0.10523692
-0.2209335 0.11154556 0.5583812 0.110270575 -0.026920367 0.076755285 0.3917533 0.24270955
-0.16187981 0.33851454 0.2636587 0.32813606 -0.16193552 0.06444708 0.6358429 -0.25829956
-0.02608585 -0.14820388 -0.21356794 -0.25830555 -0.1543265 -0.25665173 -0.23745072 -0.35977724
-0.24128027 0.08218191 0.092746936 -0.112789236 -0.27467367 -0.024193516 -0.3949829 0.24072273
-0.43962884 0.0034238605 -0.25310093 -0.26864034 0.21614951 0.17512761 0.58999467 -0.29003158
-0.010423209 -0.4673183 -0.17747779 -0.33413085 0.113246925 -0.46008363 -0.10697208 -0.5295446
0.08948996 0.060304336 0.2643934 -0.06017882 -0.26774865 -0.24779207 -0.16735317 -0.037683282
0.14119974 0.33718523 -0.13706213 0.2555473 -0.23629956 -0.007386512 0.041524716 -0.27779227
-0.35269374 -0.26277825 0.2649377 -0.31129885 -0.1124593 0.07818564 -0.123607144 -0.18577437
0.3525103 -0.11209712 -0.21172763 0.00914502 -0.377902 0.08553017 -0.06908737 -0.0842389
-0.019456157 -0.112471946 -0.17163119 -0.44149664 -0.09869071 0.42409933 -0.30871513 -0.0073506585
0.05658844 -0.3821133 -0.410658 -0.32014957 -0.022098748 0.29278588 -0.006760094 0.067392804
-0.10596006 -0.3640519 0.16454265 -0.2426592 0.33820665 -0.055174526 0.05361741 -0.2233438
0.11558843 0.4326937 0.022760987 -0.16374332 -0.026821278 -0.10351766 -0.1958731 0.05406652
0.11069579 -0.2172469 0.22745143 0.2762748 0.38693905 0.2241353 -0.17818056 0.2572443
0.03252143 -0.044639725 0.19152991 0.1566104 0.32048723 0.1591388 -0.1726624 -0.27438733
-0.288922 0.07061774 0.032403454 -0.14991617 0.26186958 0.2268819 0.16377302 -0.15049021
-0.05461622 0.19920996 0.20142643 -0.3086043 -0.113360226 0.07532046 0.24916765 -0.053633086
-0.13875002 -0.050285697 0.21724318 -0.37806985 0.121301815 0.29819342 -0.21053097 0.2044913
0.18638636 -0.15118133 0.030778393 -0.11826733 0.14185609 -0.20923494 -0.16303252 0.41541985
00000000: 3ad9 81be e72f ff3e 5844 06bd 1418 96be
00000010: d61f ad3c 12b8 23be 3669 e63e 856c 98be
00000020: c114 c93c 10a9 a53c 6aa6 8cbe 11d0 0abe
00000030: 7c4b d0be f22a 203e ac18 b93a e43d 4a3e
00000040: b41a dcbe 7994 b0bd 43ff bbbe 648e 78be
00000050: 5e88 10bc 2102 13be 7b1c a43e adcd 02bd
00000060: 0e8e b93d 68b3 963e fe33 ad3e c052 a7be
00000070: 7ba6 d5be eeef 353d 2664 00bb 39fa 7a3e
00000080: 363a 273c 1866 e3bc 73df 3bbe 89f7 91be
00000090: c852 54be cd94 2b3d 2711 15be 9e3e 95be
000000a0: 4006 cabd 071c 833e 93fd 4bbe abc2 e9bb
000000b0: cc1b c5be 52b3 d9bd 4bb1 64be 9719 40bd
000000c0: abff 10be c1b6 0bbe 65d5 10be 8ab2 a23d
000000d0: bdd0 65be e4bc 413e 2c1b c7bd 4fd7 713e
000000e0: 6b51 96bd 6582 6bbe 2484 12be 7b2d be3e
000000f0: e9cc ea3c 46ec 90be 69c6 acbe 7269 7c3e
00000100: 596e 44ba 05dc 95be c798 5c3d 473f 8cbd
00000110: 4d8b d13d fbf2 16bd f9d4 183e 436e 8c3e
00000120: 7a5d 3ebe e1ba 84be 6e4b 843d 4dd7 34bd
00000130: 70ad ddbe b67c 49bd a061 983e 31ee acbe
00000140: 3401 d9bd a096 f5bd 1c5e e7be a5f6 2a3e
00000150: c4ca 73bc 425c cebe 56c4 10be c5a5 4fbe
00000160: 7e4f 0f3e 1e50 22be 565b a13d 11e9 523c
00000170: 87d6 bbbe aa06 32be 394f a13e 7486 d73d
00000180: 643c 62be 0072 e43d 12f2 0e3f 8ad5 e13d
00000190: 1a88 dcbc e031 9d3d e393 c83e da88 783e
000001a0: d2c3 25be c751 ad3e 46fe 863e 7301 a83e
000001b0: 6dd2 25be d5fc 833d 9ac6 223f d73f 84be
000001c0: feb1 d5bc c2c2 17be 8eb1 5abe a040 84be
000001d0: c407 1ebe db67 83be 4826 73be b934 b8be
000001e0: 2d12 77be fd4e a83d 1bf2 bd3d 0bfe e6bd
000001f0: 07a2 8cbe 7b31 c6bc 333b cabe 0580 763e
00000200: 0817 e1be d962 603b 7296 81be 3a8b 89be
00000210: 4c56 5d3e a754 333e e409 173f 057f 94be
00000220: 1bc6 2abc 5844 efbe bdbc 35be 3313 abbe
00000230: 01ee e73d 1590 ebbe 2e14 dbbd 3c90 07bf
00000240: 8346 b73d ae01 773d 925e 873e 117e 76bd
00000250: 5a16 89be 34bd 7dbe a15e 2bbe c959 1abd
00000260: aa96 103e 8ba3 ac3e 045a 0cbe 19d7 823e
00000270: 83f8 71be 8e0a f2bb d215 2a3d ca3a 8ebe
00000280: 4694 b4be df8a 86be eaa5 873e 9062 9fbe
00000290: 1051 e6bd cb1f a03d be25 fdbd a33b 3ebe
000002a0: 3b7c b43e 2d93 e5bd 21cf 58be fed4 153c
000002b0: 5f7c c1be 712a af3d ae7d 8dbd 7285 acbd
000002c0: 8562 9fbc b157 e6bd 16c0 2fbe d90b e2be
000002d0: 5b1e cabd 8c23 d93e e90f 9ebe cbdd f0bb
000002e0: 48c9 673d 5ba4 c3be c441 d2be a5ea a3be
000002f0: 6f08 b5bc 08e8 953e c783 ddbb 3d05 8a3d
00000300: 9701 d9bd 0365 babe de7d 283e a77b 78be
00000310: 6c29 ad3e affe 61bd ee9d 5b3d 3db4 64be
00000320: a0b9 ec3d 078a dd3e 4075 ba3c 54ac 27be
00000330: 4cb8 dbbc 1101 d4bd f592 48be db74 5d3d
00000340: 79b4 e23d f975 5ebe 07e9 683e e473 8d3e
00000350: e01c c63e b983 653e f774 36be 86b5 833e
00000360: 3135 053d 25d8 36bd 6b20 443e 7a5e 203e
00000370: e716 a43e 48f5 223e 6ace 30be 7f7c 8cbe
00000380: 96ed 93be 09a0 903d 7cb9 043d a083 19be
00000390: c513 863e bb53 683e 1db4 273e 1b1a 1abe
000003a0: 42b5 5fbd b2fd 4b3e bb42 4e3e 6201 9ebe
000003b0: 6829 e8bd 9d41 9a3d ce25 7f3e 5eae 5bbd
000003c0: 7c14 0ebe 60f8 4dbd ff74 5e3e 5f92 c1be
000003d0: 166d f83d cfac 983e 6e95 57be 2b66 513e
000003e0: 11dc 3e3e 47cf 1abe f822 fc3c 2436 f2bd
000003f0: b942 113e af41 56be fff1 26be e9b1 d43e

sequential/batch_normalization_3/batchnorm/mul_1;sequential/conv1d_2/conv1d/Squeeze;sequential/conv1d_2/BiasAdd;sequential/conv1d_2/BiasAdd/ReadVariableOp/resource;sequential/batch_normalization_3/batchnorm/mul;sequential/conv1d_2/conv1d f4 [64, 1, 3, 32]
0.26527345 -0.17738055 0.25913432 -0.05079538 -0.036839496 0.08693295 0.010582264 0.13843206
0.20755091 0.2525168 0.14556502 -0.13416985 -0.0060536205 0.12669563 -0.3014437 -0.28473082
0.051566802 -0.03384763 0.24010871 -0.17703114 -0.06733274 -0.22171114 -0.087271996 -0.2353916
0.08671586 -0.023173824 -0.013229577 0.08341637 0.3485652 0.070306525 -0.021102328 0.04651338
0.015265314 0.32453722 0.3281791 -0.2329137 0.12452254 -0.2131124 -0.13425803 -0.037505668
-0.15202653 0.17555705 0.16350354 -0.30176905 0.2791096 -0.026838897 -0.011024834 0.1816221
-0.14410168 -0.25682694 0.15905987 0.024246823 -0.1465791 -0.19090913 -0.18532069 0.004107244
-0.020209128 -0.2315329 -0.025665825 0.23411544 -0.0030752732 0.11523005 -0.055061184 0.17171824
0.22445151 -0.25874802 0.059738565 -0.13115726 -0.28081954 -0.19115753 0.28580067 -0.15399608
0.030930415 0.25185883 0.16921073 0.19664593 0.07413405 0.18911472 0.3068731 -0.088233106
0.17271662 -0.027818488 0.26052535 -0.07323896 0.19473678 -0.05642979 0.32105124 -0.11851776
0.047542658 0.17309318 -0.18911771 0.3249695 0.2596135 0.18967086 -0.26546434 -0.15282747
-0.21931443 -0.257859 0.27153304 0.2674467 0.10740388 -0.39354253 -0.06660771 0.039903354
-0.24098136 -0.34958115 0.2872705 -0.2779422 0.091555595 -0.08859338 -0.13739508 0.20679659
-0.13767408 -0.005930268 0.0035836452 0.07001659 0.13095325 0.23120107 -0.098918065 -0.17209546
-0.2867239 0.22196615 -0.0120743085 -0.12981781 -0.2594079 -0.18621334 0.07695037 -0.05541227
0.09377174 -0.110091366 0.23834562 -0.27783608 -0.058920067 0.19317928 -0.1367581 0.20063189
0.18767697 0.064397275 -0.05658428 -0.123327464 0.27232435 0.002623665 -0.098658696 0.22804882
0.11646875 -0.18037067 0.37398356 0.06872131 0.095491104 -0.23050435 -0.058712542 -0.11053186
-0.26998347 0.060638346 -0.2420487 -0.11079567 -0.40176535 -0.28436032 0.2384477 -0.15393493
0.102478966 0.12553898 -0.042225163 0.19848579 0.108913004 0.21889815 0.32984442 0.119555496
0.248701 -0.11665423 0.17262724 -0.0006983536 -0.06957351 -0.06670571 0.25970855 -0.28323668
0.039635684 0.15332972 -0.1407135 0.25226825 -0.23747201 0.024074877 -0.04793212 -0.09909648
0.38865092 0.15197244 0.1264943 0.026790101 0.19652784 0.16898571 0.11041 0.22553752
0.19820727 0.13274254 -0.1396941 0.064503506 0.04377447 -0.20789902 -0.10637247 -0.15553291
-0.20239824 0.12561066 -0.12911351 0.060223456 -0.06613597 0.16027746 -0.081218235 0.11965079
-0.030426439 0.07016851 0.0015465867 -0.07993855 -0.053323936 -0.031179659 -0.11400029 -0.11238555
-0.13298514 -0.06655974 -0.011480883 0.17661779 0.034723278 -0.17183107 -0.08821623 0.17188428
-0.1461177 0.09363442 0.00056658994 -0.06890698 -0.05896522 0.04904972 -0.062380973 -0.19564919
-0.08162124 0.037921805 0.09314802 0.16955385 0.051874533 -0.15657178 0.048484527 -0.101530656
-0.06754686 -0.071959406 -0.20321468 -0.20354009 -0.18293619 -0.082626194 0.10099116 0.083259046
0.012381502 0.082733326 0.02684849 -0.14527239 -0.16559161 -0.13940594 -0.18966433 0.057844084
00000000: ecd1 873e 3fa3 35be 41ad 843e d10e 50bd
00000010: 03e5 16bd e709 b23d 3b61 2d3c 22c1 0d3e
00000020: 3a88 543e e249 813e ff0e 153e d263 09be
00000030: 735d c6bb 80bc 013e d456 9abe 3dc8 91be
00000040: b637 533d d0a3 0abd 0fdf 753e a747 35be
00000050: bfe5 89bd 3f08 63be a9bb b2bd 7f0a 71be
00000060: 1698 b13d 08d7 bdbc dec0 58bc 34d6 aa3d
00000070: 2377 b23e defc 8f3d cade acbc d084 3e3d
00000080: 5e1b 7a3c be29 a63e 1707 a83e ee80 6ebe
00000090: ac05 ff3d 233a 5abe f07a 09be 8b9f 19bd
000000a0: d8ac 1bbe 3ac5 333e 796d 273e 7981 9abe
000000b0: 74e7 8e3e 3fdd dbbc 81a1 34bc 25fb 393e
000000c0: 648f 13be d27e 83be 97e0 223e 46a1 c63c
000000d0: d518 16be af7d 43be b5c4 3dbe 0f96 863b
000000e0: 9d8d a5bc f616 6dbe 2341 d2bc f5bb 6f3e
000000f0: 868a 49bb bcfd eb3d d687 61bd e8d6 2f3e
00000100: 9ed6 653e 9f7a 84be 6db0 743d 174e 06be
00000110: 94c7 8fbe cdbe 43be 7754 923e 26b1 1dbe
00000120: c861 fd3c a4f3 803e 9445 2d3e 8d5d 493e
00000130: 98d3 973d 4aa7 413e 791e 9d3e 8fb3 b4bd
00000140: a0dc 303e 99e3 e3bc 9463 853e 4ffe 95bd
00000150: 1469 473e ec22 67bd d460 a43e 70b9 f2bd
00000160: 17bc 423d 573f 313e 13a8 41be 6762 a63e
00000170: 10ec 843e 1439 423e f1ea 87be ce7e 1cbe
00000180: f693 60be 1806 84be 6106 8b3e c6ee 883e
00000190: 91f6 db3d 687e c9be a069 88bd b371 233d
000001a0: d1c3 76be 4dfc b2be 1e15 933e 714e 8ebe
000001b0: 8081 bb3d 7270 b5bd 4cb1 0cbe 7cc2 533e
000001c0: 6ffa 0cbe b252 c2bb 97db 6a3b dc64 8f3d
000001d0: 9c18 063e f9bf 6c3e 8e95 cabd cb39 30be
000001e0: 7acd 92be 184b 633e 52d3 45bc f6ee 04be
000001f0: 1dd1 84be b6ae 3ebe 2898 9d3d faf7 62bd
00000200: 660b c03d 9577 e1bd e010 743e 8840 8ebe
00000210: 2b56 71bd cad0 453e 510a 0cbe 7272 4d3e
00000220: 642e 403e b8e2 833d ebc4 67bd 1c93 fcbd
00000230: 196e 8b3e cbf1 2b3b 920d cabd a185 693e
00000240: 2b87 ee3d 17b3 38be c67a bf3e c2bd 8c3d
00000250: d790 c33d 5509 6cbe 907c 70bd 875e e2bd
00000260: 463b 8abe ea5f 783d 9ddb 77be d7e8 e2bd
00000270: 30b4 cdbe ad97 91be a22b 743e 1ea1 1dbe
00000280: 7ee0 d13d 4a8d 003e 4bf4 2cbd dc3f 4b3e
00000290: c80d df3d d626 603e 5ee1 a83e 83d9 f43d
000002a0: 7aab 7e3e 6ae8 eebd 32c5 303e b711 37ba
000002b0: 8e7c 8ebd 019d 88bd 85f8 843e 6604 91be
000002c0: 0759 223d 7702 1d3e 3317 10be 4e29 813e
000002d0: dd2b 73be ad38 c53c 7854 44bd 18f3 cabd
000002e0: 41fd c63e aa9e 1b3e b987 013e ea76 db3c
000002f0: 983e 493e 970a 2d3e a31e e23d 4ff3 663e
00000300: d9f6 4a3e a9ed 073e f80b 0fbe 6a1a 843d
00000310: dc4c 333d 7be3 54be cfd9 d9bd 0544 1fbe
00000320: 7c41 4fbe 15a0 003e 5536 04be dfac 763d
00000330: 4c72 87bd c61f 243e bf55 a6bd 790b f53d
00000340: de40 f9bc 82b4 8f3d d7b6 ca3a d3b6 a3bd
00000350: 336a 5abd 7c6c ffbc fc78 e9bd 652a e6bd
00000360: 422d 08be 7950 88bd 501a 3cbc 4bdb 343e
00000370: ff39 0e3d 7cf4 2fbe b6aa b4bd 6f02 303e
00000380: e19f 15be 67c3 bf3d 3587 143a 1a1f 8dbd
00000390: 8485 71bd 5ce8 483d 3183 7fbd 4358 48be
000003a0: 0929 a7bd e553 1b3d 64c4 be3d 869f 2d3e
000003b0: 647a 543d 5a54 20be b697 463d 4eef cfbd
000003c0: 0256 8abd 745f 93bd 8217 50be d06c 50be
000003d0: a053 3bbe ec37 a9bd 74d4 ce3d b883 aa3d
000003e0: c9db 4a3c 1770 a93d 5df1 db3c 49c2 14be
000003f0: d990 29be 6ec0 0ebe 5e37 42be ebed 6c3d

sequential/dense_1/BiasAdd/ReadVariableOp/resource f4 [7]
-0.117282316 0.023055928 -0.12414437 0.027493892 -0.12309311 -0.12672095 -0.067244485
00000000: b631 f0bd c9df bc3c 673f febd df3a e13c
00000010: 3e18 fcbd 23c3 01be 7ab7 89bd

sequential/dense/BiasAdd/ReadVariableOp/resource f4 [100]
-0.01172699 -0.031940456 -0.034364413 -0.0041630846 0.0022114348 -0.023876961 0.013121354 0.012759022
0.05602613 0.036971077 0.0039586015 0.026121888 -0.0029456567 -0.007293065 -0.0023273272 0.010425045
-0.007235768 0.02777115 0.0033001653 0.023657382 -0.010987089 0.015044942 -0.012216708 -0.014157905
-0.00553764 0.0008909835 0.026134295 0.00952066 0.07090519 0.023526147 -0.013501268 -0.023973683
-0.008352731 -0.013131394 -0.010562046 -0.030558122 -0.003063976 -0.0017501228 -0.011069377 0.0037359737
0.0105132405 0.007852994 0.005720194 0.014770711 0.020165123 0.02333122 -0.018836644 -0.016526055
0.0872777 0.00060985255 0.027443215 0.040634442 -0.02548429 0.03416239 0.0077805305 -0.0048801852
-0.00048859 0.006717627 -0.0061334935 0.035086524 -0.0054425625 -0.0076265545 -0.0056221355 -0.012199126
-0.012812714 -0.012595967 -0.019244943 0.039750863 0.039429307 -0.010069717 -0.020121604 -0.040829405
0.0056874007 0.0004502124 0.008343636 0.04296531 -0.004906594 0.0136127835 -0.025371734 -0.004012193
-0.009178454 0.063776866 -0.009816689 -0.012330463 -0.0032594122 -0.010308687 0.0012873239 0.05794753
-0.014935239 0.034034386 0.007704845 0.0018095237 0.0014204845 0.10258091 -0.009452999 -0.023533154
0.032386594 -0.006105327 0.0019278782 0.025930187
00000000: 9022 40bc ffd3 02bd b3c1 0cbd 7c6a 88bb
00000010: b8ed 103b 9e99 c3bc f3fa 563c 380b 513c
00000020: a87b 653d fc6e 173d 28b7 813b 92fd d53c
00000030: eb0b 41bb aafa eebb 1286 18bb cfcd 2a3c
00000040: 051a edbb 5380 e33c 9647 583b 20cd c13c
00000050: 3103 34bc 0f7f 763c 9628 48bc 8ff6 67bc
00000060: 1775 b5bb e490 693a 9717 d63c 8bfc 1b3c
00000070: be36 913d e8b9 c03c 6c34 5dbc 7564 c4bc
00000080: e5d9 08bc 0f25 57bc 6f0c 2dbc 0755 fabc
00000090: fdcc 48bb 6064 e5ba 555c 35bc 3dd7 743b
000000a0: ba3f 2c3c d8a9 003c 7770 bb3b da00 723c
000000b0: 5431 a53c 1d21 bf3c 4e4f 9abc a661 87bc
000000c0: a7be b23d 83de 1f3a 98d0 e03c 4d70 263d
000000d0: 6ec4 d0bc dded 0b3d d2f3 fe3b f6e9 9fbb
000000e0: b814 00ba 8a1f dc3b 79fb c8bb e3b6 0f3d
000000f0: 8657 b2bb 2de8 f9bb e439 b8bb d8de 47bc
00000100: 6bec 51bc 515f 4ebc 92a7 9dbc cdd1 223d
00000110: a080 213d 74fb 24bc 10d6 a4bc bc3c 27bd
00000120: 605d ba3b 7c0a ec39 bfb3 083c 65fc 2f3d
00000130: 7ec7 a0bb 2708 5f3c 62d8 cfbc b778 83bb
00000140: 3a61 16bc 729d 823d 2ed6 20bc b605 4abc
00000150: dd9b 55bb c4e5 28bc 6cbb a83a 645a 6d3d
00000160: efb2 74bc a467 0b3d ed78 fc3b 8a2d ed3a
00000170: 8d2f ba3a f115 d23d c0e0 1abc 9ac8 c0bc
00000180: cea7 043d 320f c8bb dcb0 fc3a 8b6b d43c

sequential/batch_normalization/batchnorm/mul f4 [6]
1.5932813 2.454648 1.9731348 0.062622115 0.042953026 0.088778056
00000000: a4f0 cb3f f418 1d40 ae8f fc3f 0640 803d
00000010: 83ef 2f3d 45d1 b53d

sequential/batch_normalization/batchnorm/sub f4 [6]
0.08182267 1.3237461 -0.08771759 -0.01443703 -0.010907292 -0.0029268237
00000000: a592 a73d 8370 a93f 48a5 b3bd 4b89 6cbc
00000010: 80b4 32bc f4cf 3fbb

sequential/dense/MatMul f4 [100, 640]
0.013260474 0.052396186 0.034223754 -0.07309311 -0.09868154 -0.038719025 0.079503834 -0.060018618
-0.030323762 0.064875774 0.009314445 -0.056039922 -0.012074884 0.04207562 -0.08091332 -0.04644776
0.029963939 -0.010050511 0.029016156 0.06263903 0.023535646 -0.08166629 -0.05617484 -0.047515556
0.01097508 -0.0787372 -0.044140708 -0.014627821 0.07798594 0.06408478 0.01758293 0.014971963
-0.0411181 0.020576442 -0.051227584 -0.039701987 -0.07985982 -0.08224547 0.021454563 -0.050754663
0.022459904 0.010487659 -0.08910722 0.08087216 -0.030013084 -0.049201857 0.080944434 -0.03804983
0.0026970955 -0.10515765 -0.056706626 -0.07773523 0.02506309 -0.027565219 -0.02050334 -0.05513101
0.049222834 -0.010729069 -0.05126251 -0.110144444 -0.058937058 -0.014601628 0.03618774 -0.0024611105
-0.06699929 0.04752834 -0.083579235 0.030672783 -0.034281008 0.011424367 0.043662164 0.014196981
-0.047223844 -0.10076981 -0.03069432 -0.044019815 0.028481249 0.029697128 -0.066101946 0.06787245
-0.07388997 -0.0056969873 -0.06529864 -0.03403002 -0.06232586 -0.020444015 0.030864134 0.079845265
-0.07967433 0.0001286205 0.08216115 -0.014135386 0.059182364 0.073833846 0.06625688 -0.017650856
-0.10535323 -0.034389846 -0.03635113 -0.019152513 -0.06071561 0.05726624 0.021904623 0.051526815
0.014852681 -0.025928652 -0.05814484 -0.037331652 -0.023272553 -0.06561378 0.08762675 0.0006635863
0.055892926 -0.039961126 -0.020507853 -0.048055794 0.08129937 -0.015554531 0.004362806 -0.054007053
0.021511434 0.03403808 0.05393718 -0.002134235 0.04735051 -0.057901587 0.03771666 0.07395734
-0.027935157 -0.012524031 -0.08244149 0.07822434 -0.09403091 -0.01917408 -0.07933779 -0.00822086
0.02212061 -0.0024980223 0.013140813 -0.0800303 -0.018059116 -0.067011654 0.023297068 0.06147352
-0.041001994 0.046352655 -0.016848003 -0.009396098 0.019193782 0.0775167 -0.061423626 0.100184955
0.07029882 -0.02573107 0.018420143 -0.064801835 -0.0118614575 -0.04210516 0.03486368 0.07873587
0.07439547 -0.0015834473 -0.03202894 0.031923722 0.05317795 -0.017073303 0.06299203 0.057745595
0.047749456 0.08483298 -0.043564275 -0.05945048 -0.050893415 -0.04277025 0.07113922 0.05415611
-0.008209472 -0.036857713 -0.008903032 -0.025481144 -0.042053077 -0.065873176 0.07088366 0.051545326
-0.022181489 -0.021984784 0.0016082056 -0.0018165805 0.042576328 0.0054805805 0.057067104 0.035416864
-0.0012959877 0.012393759 -0.046765245 0.03164025 -0.09092147 -0.010543933 0.0132667795 0.06412226
-0.05816387 0.073410146 -0.028969664 0.028724868 0.029610338 -0.006962973 0.013654118 -0.043423187
0.042371463 -0.04780069 0.07296709 -0.06702742 -0.020778887 0.019225921 0.057708804 -0.07814444
-0.081183635 0.0023233255 0.0046215523 0.06049284 0.034765717 0.021437403 0.056065097 0.06187901
0.07301822 0.007980306 -0.002373475 0.06112279 -0.051565353 0.062360473 -0.08663259 0.090877935
-0.09325555 -0.014875494 -0.018676495 0.006821903 0.043673087 0.0021525112 -0.010206875 -0.09029898
0.06490941 0.07622593 0.08037589 0.0052965865 0.004356437 0.052099094 0.076192945 -0.08241622
0.03793556 -0.0024876983 -0.012904253 0.05510071 -0.053671576 0.047652874 0.0684258 0.065271206
00000000: 7642 593c 629d 563d 352e 0c3d d7b1 95bd
00000010: 8c19 cabd d797 1ebd e8d2 a23d 15d6 75bd
00000020: 8a69 f8bc 97dd 843d 9d9b 183c 1e8a 65bd
00000030: bcd5 45bc 7c57 2c3d e2b5 a5bd 0240 3ebd
00000040: ef76 f53c e6aa 24bc 4ab3 ed3c e448 803d
00000050: d4cd c03c a840 a7bd 9717 66bd ac9f 42bd
00000060: d2d0 333c f840 a1bd e3cc 34bd 87a9 6fbc
00000070: 18b7 9f3d e23e 833d 140a 903c f74c 753c
00000080: 746b 28bd ed8f a83c 04d4 51bd 8d9e 22bd
00000090: 8c8d a3bd 5070 a8bd 7bc1 af3c 1fe4 4fbd
000000a0: d5fd b73c 6ed4 2b3c d97d b6bd 4ea0 a53d
000000b0: 00de f5bc e387 49bd 32c6 a53d 23da 1bbd
000000c0: c1c1 303b e55c d7bd 3545 68bd a633 9fbd
000000d0: 1c51 cd3c 74d0 e1bc 9ff6 a7bc 0ed1 61bd
000000e0: e29d 493d fac8 2fbc a3f8 51bd 6993 e1bd
000000f0: fc67 71bd ab3b 6fbc 9839 143d 954a 21bb
00000100: ec36 89bd 14ad 423d 972b abbd 7d45 fb3c
00000110: 3e6a 0cbd 452d 3b3c 19d7 323d 749a 683c
00000120: ca6d 41bd 6760 cebd a872 fbbc 1f4e 34bd
00000130: 8251 e93c 6447 f33c 7560 87bd b600 8b3d
00000140: a053 97bd cbad babb 4bbb 85bd 1063 0bbd
00000150: 6749 7fbd 357a a7bc c8d6 fc3c ea85 a33d
00000160: 4c2c a3bd 4dde 0639 1b44 a83d 1b98 67bc
00000170: 3569 723d 3336 973d b0b1 873d 8798 90bc
00000180: 6fc3 d7bd 5edc 0cbd ece4 14bd bbe5 9cbc
00000190: eeb0 78bd 0190 6a3d 5371 b33c c80d 533d
000001a0: a958 733c 5368 d4bc 4929 6ebd 13e9 18bd
000001b0: 15a6 bebc 8460 86bd a775 b33d 86f4 2d3a
000001c0: fbef 643d 47ae 23bd 1600 a8bc 27d6 44bd
000001d0: 4980 a63d 6ed8 7ebc dff5 8e3b 8036 5dbd
000001e0: bf38 b03c 846b 0b3d 3ced 5c3d 86de 0bbb
000001f0: 9cf2 413d 372a 6dbd c97c 1a3d f276 973d
00000200: 45d8 e4bc 9831 4dbc 15d7 a8bd 1534 a03d
00000210: 4793 c0bd f612 9dbc da7b a2bd c9b0 06bc
00000220: 4836 b53c dcb5 23bb 914c 573c ede6 a3bd
00000230: b6f0 93bc 683d 89bd 7ed9 be3c a8cb 7b3d
00000240: b5f1 27bd 48dc 3d3d d304 8abc 17f2 19bc
00000250: 473c 9d3c 13c1 9e3d 5797 7bbd c52d cd3d
00000260: d4f8 8f3d f7c9 d2bc d7e5 963c d3b6 84bd
00000270: 8f56 42bc 7676 2cbd 38cd 0e3d 4640 a13d
00000280: a75c 983d ad8b cfba c730 03bd 73c2 023d
00000290: 1fd1 593d 50dd 8bbc f701 813d a586 6c3d
000002a0: ef94 433d eabc ad3d 7470 32bd 5982 73bd
000002b0: 9d75 50bd dc2f 2fbd 70b1 913d ccd2 5d3d
000002c0: 0581 06bc 1df8 16bd 06de 11bc d5bd d0bc
000002d0: d93f 2cbd 84e8 86bd 742b 913d 3121 533d
000002e0: f4b5 b5bc 6f19 b4bc 6dca d23a 541a eeba
000002f0: 8464 2e3d 7196 b33b 32bf 693d 4611 113d
00000300: 22de a9ba 310f 4b3c ea8c 3fbd 3599 013d
00000310: 0935 babd 76c0 2cbc e85c 593c 8852 833d
00000320: 3d3d 6ebd 0f58 963d ca51 edbc 6a50 eb3c
00000330: 6191 f23c a729 e4bb 86b5 5f3c 83dc 31bd
00000340: b38d 2d3d a8ca 43bd c56f 953d ac45 89bd
00000350: 7c38 aabc ae7f 9d3c 1160 6c3d 310a a0bd
00000360: 9b43 a6bd ef42 183b 6470 973b 57c7 773d
00000370: 7f66 0e3d 7e9d af3c 84a4 653d d874 7d3d
00000380: 948a 953d d4bf 023c 4e8c 1bbb e45b 7a3d
00000390: 3136 53bd b26d 7f3d 6d6c b1bd 361e ba3d
000003a0: c4fc bebd 58b8 73bc 73ff 98bc 458a df3b
000003b0: 8de2 323d 2511 0d3b bd3a 27bc acee b8bd
000003c0: 3aef 843d 571c 9c3d 1d9c a43d fd8e ad3b
000003d0: 71c0 8e3b dc65 553d 0c0b 9c3d d6c9 a8bd
000003e0: 5162 1b3d a708 23bb 5c6c 53bc 48b1 613d
000003f0: bad6 5bbd a92f 433d d322 8c3d e9ac 853d

sequential/dense_1/MatMul f4 [7, 100]
0.2676167 0.19495481 -0.16166782 0.10190593 -0.055168256 -0.14670981 0.027745878 0.017564071
-0.39268738 -0.4179186 0.03482197 -0.18468624 0.13303292 0.039095018 -0.14528689 -0.14221819
-0.21788113 -0.12491697 0.21299645 -0.18963748 0.14920849 0.09510684 0.20824945 0.1472531
0.14865394 0.1546025 -0.3632128 -0.24105427 -0.10901306 -0.17441921 0.20153299 0.0572603
0.14713316 0.20112266 0.022011932 -0.01389336 0.33951902 0.21881357 -0.047328692 -0.020458411
-0.2305703 0.052041005 0.14802237 0.01763658 -0.30217174 0.031235049 0.08819233 0.056450956
-0.33438724 0.19531807 -0.21406308 -0.0007103474 -0.22086751 -0.113844484 0.16574211 -0.013238633
-0.0667589 -0.19675283 -0.03993906 -0.10527413 0.29319406 0.06680175 0.19707228 0.03243037
0.1624267 0.2516837 -0.32345194 -0.21328673 -0.3281816 0.029273033 0.14750707 0.01244943
-0.24418338 0.08937905 -0.15779552 -0.17280419 0.12333494 -0.085568585 0.05018408 -0.14458795
0.19355349 -0.16616537 -0.20614527 0.17672825 0.18899907 -0.06982705 0.15404351 -0.32799643
0.08557505 0.14615218 -0.22421126 -0.050070345 -0.34889248 -0.14443754 -0.10404524 -0.3157595
-0.011853223 0.082739525 -0.09356631 -0.04222851 -0.24939083 0.0003262937 -0.2282751 0.18451388
-0.18450919 -0.16149661 0.22819483 0.31714618 -0.12762263 -0.18251994 0.18833281 -0.19270065
0.056766786 -0.13098025 -0.019747356 0.16429818 0.022285696 -0.22220245 -0.1472503 -0.30204076
-0.28221175 0.27610642 0.09725481 -0.2090028 0.033380542 0.14913334 -0.29699156 0.12235465
0.06325168 0.13932246 -0.092872895 0.10194397 0.032464944 -0.16550347 0.08739828 -0.23649813
-0.010985382 -0.16761751 -0.026536992 -0.1672539 -0.068422094 -0.069332264 -0.20536134 0.19846734
5.3800002e-05 0.15583394 -0.17358094 0.071824916 0.13349093 -0.103346385 -0.11299776 -0.25160095
-0.10839389 -0.28415108 0.16340888 -0.178053 0.21666881 0.25904816 -0.12053853 0.26403788
0.054973952 -0.21698199 -0.15352151 0.09846372 -0.11124158 -0.11591258 -0.07296356 0.15447675
0.066686325 0.069884256 -0.04637053 -0.20587787 0.19017652 -0.078387596 -0.27113548 0.12902367
-0.23957215 0.18567543 -0.28794587 0.21630757 -0.032344762 0.10626454 0.07469574 -0.110139124
0.113644265 0.17103586 0.01617977 0.21755469 0.12392403 0.1316045 -0.032415915 -0.07407547
-0.313949 0.09003626 -0.09668245 -0.32469687 0.033113554 0.096652 0.019284355 0.1121723
-0.0052652806 0.057775617 -0.07034916 0.075616166 0.14331798 0.026718754 -0.19765711 0.06511906
-0.22071 -0.19239807 -0.13714209 -0.017376563 0.049254704 -0.076396324 0.16703741 -0.037019394
-0.104287334 -0.2725674 -0.34298226 -0.218502 -0.3764945 -0.051228873 0.21613078 -0.06752264
0.08521155 -0.051394626 -0.099122085 0.1020657 -0.22425145 -0.2976903 0.07869881 -0.12781465
0.035988525 -0.08453375 -0.38960344 0.059264574 0.002898902 -0.24858709 -0.05474484 -0.27485347
-0.07964439 -0.24833405 -0.21931288 -0.23843527 0.13286625 -0.15907297 0.037222423 -0.07228553
-0.35496908 0.072502434 -0.34172493 -0.05011376 0.11418638 -0.22214095 0.06963573 -0.25752595
00000000: 0e05 893e 3ca2 473e 408c 25be 0eb4 d03d
00000010: 1cf8 61bd 193b 16be 534b e33c 87e2 8f3c
00000020: 520e c9be 6df9 d5be 7ba1 0e3d 641e 3dbe
00000030: c839 083e 1922 203d 16c6 14be a5a1 11be
00000040: 3b1c 5fbe 78d4 ffbd be1b 5a3e 5430 42be
00000050: 1cca 183e 60c7 c23d 583f 553e 84c9 163e
00000060: bd38 183e 1e50 1e3e 07f7 b9be eed6 76be
00000070: 3d42 dfbd f39a 32be aa5e 4e3e c789 6a3d
00000080: 13aa 163e 19f3 4d3e 5e52 b43c faa0 63bc
00000090: 70d5 ad3e aa10 603e bbdb 41bd 6698 a7bc
000000a0: 9f1a 6cbe f328 553d 2d93 173e 977a 903c
000000b0: 41b6 9abe a5e0 ff3c 2e9e b43d 1e39 673d
000000c0: ce34 abbe 7601 483e 5a33 5bbe 9b36 3aba
000000d0: 182b 62be 4c27 e9bd 4db8 293e dae6 58bc
000000e0: e4b8 88bd 9379 49be 2497 23bd f799 d7bd
000000f0: 881d 963e 5bcf 883d 51cd 493e b5d5 043d
00000100: 2f53 263e b0dc 803e 7e9b a5be d667 5abe
00000110: 6b07 a8be 00ce ef3c 180c 173e b2f8 4b3c
00000120: 350b 7abe 5d0c b73d 2695 21be 95f3 30be
00000130: 0797 fc3d 953e afbd d28d 4d3d dd0e 14be
00000140: e332 463e 4127 2abe bf17 53be 40f8 343e
00000150: f988 413e 7c01 8fbd 95bd 1d3e 26ef a7be
00000160: f941 af3d eba8 153e a397 65be 9016 4dbd
00000170: 09a2 b2be 6fe7 13be ac15 d5bd 3bab a1be
00000180: 0534 42bc 5773 a93d b29f bfbd cdf7 2cbd
00000190: 4f60 7fbe 6612 ab39 f3c0 69be 35f1 3c3e
000001a0: faef 3cbe 5e5f 25be e8ab 693e fc60 a23e
000001b0: 82af 02be 82e6 3abe 51da 403e 5253 45be
000001c0: 4a84 683d b01f 06be 35c5 a1bc c83d 283e
000001d0: 7e90 b63c 0a89 63be c8c8 16be 16a5 9abe
000001e0: 0f7e 90be d25d 8d3e 882d c73d d404 56be
000001f0: 09ba 083d 69b6 183e 470f 98be 1395 fa3d
00000200: 198a 813d 8caa 0e3e 2534 bebd 00c8 d03d
00000210: f6f9 043d be79 29be dffd b23d 912c 72be
00000220: 08fc 33bc eda3 2bbe 1b64 d9bc 9b44 2bbe
00000230: e220 8cbd 13fe 8dbd 3e4a 52be 063b 4b3e
00000240: 50a7 6138 ef92 1f3e 34bf 31be f118 933d
00000250: d9b1 083e 45a7 d3bd 5f6b e7bd d7d1 80be
00000260: 9efd ddbd 407c 91be a854 273e 8753 36be
00000270: 6ede 5d3e f6a1 843e e8dc f6bd f92f 873e
00000280: 5e2c 613d 8730 5ebe be34 1dbe 59a7 c93d
00000290: a0d2 e3bd 9363 edbd eb6d 95bd 272f 1e3e
000002a0: d792 883d 7a1f 8f3d 06ef 3dbd a6d1 52be
000002b0: a2bd 423e ad89 a0bd 45d2 8abe c81e 043e
000002c0: 6752 75be b321 3e3e a46d 93be bb7f 5d3e
000002d0: f17b 04bd 39a1 d93d 15fa 983d 9f90 e1bd
000002e0: 53be e83d 0624 2f3e 708b 843c a8c6 5e3e
000002f0: e2cb fd3d 54c3 063e 8dc6 04bd e1b4 97bd
00000300: ecbd a0be ee64 b83d 7301 c6bd ab3e a6be
00000310: 14a2 073d 7cf1 c53d 39fa 9d3c 97ba e53d
00000320: 6088 acbb 20a6 6c3d 3813 90bd a6dc 9a3d
00000330: f3c1 123e 4ae1 da3c a066 4abe 245d 853d
00000340: cd01 62be 0004 45be fa6e 0cbe 4b59 8ebc
00000350: 4dbf 493d ad75 9cbd db0b 2b3e a6a1 17bd
00000360: 9994 d5bd f48d 8bbe 5f9b afbe fdbe 5fbe
00000370: e3c3 c0be 5ed5 51bd 6351 5d3e 4f49 8abd
00000380: 6583 ae3d 2c83 52bd 8500 cbbd d207 d13d
00000390: 2ca2 65be dd6a 98be d72c a13d d8e1 02be
000003a0: b468 133d 0820 adbd 1a7a c7be 69bf 723d
000003b0: 81fb 3d3b 9d8d 7ebe 203c 60bd 98b9 8cbe
000003c0: 991c a3bd 484b 7ebe 8e93 60be 6028 74be
000003d0: 170e 083e 06e4 22be 8a76 183d 700a 94bd
000003e0: 82be b5be 287c 943d 92f6 aebe 1644 4dbd
000003f0: 8cda e93d eb78 63be 2d9d 8e3d 71da 83be
